model.pth (torch, 90344 bytes, 8 tensors)

conv1.weight f4 [10, 1, 5, 5]
000000 6f 3e a0 be 30 d2 b1 bc c9 47 fc 3b 8b 10 be bb
       -0.31297633 -0.02170667 0.007698987 -0.005800312
000010 8e df 2b 3e a4 33 8c be e8 53 fc 3c 9f 59 8e 3e
       0.16784498 -0.2738315 0.030801728 0.2780275
000020 ef 8d 86 3e fc 2e e8 bc d4 ab aa be f0 2b d0 3d
       0.26280162 -0.028342716 -0.3333422 0.101646304
000030 cc ca e5 3e c6 b3 a3 3e b9 98 54 be 18 c7 b6 bd
       0.44881284 0.31973094 -0.20761384 -0.08924693
000040 11 eb c4 3e eb 1f c0 3e 69 b2 52 3e d1 2a e4 be
       0.3846059 0.3752435 0.2057587 -0.44563916
000050 86 52 21 3d 37 fb b4 3e e0 9b 74 3d 66 8c 26 be
       0.03938534 0.35347912 0.059718966 -0.16264495
000060 a0 11 a1 be 84 82 28 be 54 ed c2 3c 7b 7c 38 bd
       -0.3145876 -0.16456038 0.023794807 -0.04504059
000070 99 ab e3 3d c3 af 8a 3e b5 2f 43 3e b2 51 2d 3e
       0.11116714 0.2708722 0.19061168 0.16925696
000080 65 39 b9 3e f8 f2 a7 3e 66 7b 8e 3e 70 ff 54 3e
       0.361766 0.32802558 0.2782852 0.20800567
000090 27 46 35 3e 5f 4b cf 3c 03 00 1a 3e 6f ed 8b 3c
       0.17702542 0.025304494 0.15039067 0.01708099
0000a0 14 27 9b bd d0 57 9d bd 6d 1a 09 bd 62 01 93 be
       -0.07575813 -0.076827645 -0.033472467 -0.28711993
0000b0 79 f6 99 be a6 2e 9f be 9e 1d d6 bd d0 68 b6 be
       -0.30070856 -0.31090277 -0.10454868 -0.3562684
0000c0 08 87 38 be 78 52 5b be 62 1f 54 3e fb 2f 5b be
       -0.1802026 -0.21418178 0.20715097 -0.21405022
0000d0 93 1e c4 bd d0 e7 9f bc 87 80 83 be 34 3d 4b 3e
       -0.09576144 -0.019519717 -0.25683996 0.19847566
0000e0 16 f6 27 be ad 57 2f be 77 9e 86 be c7 79 c8 bd
       -0.16402468 -0.1712329 -0.26292774 -0.09788852
0000f0 ef f9 3e bc 1b 2d 29 be 7b 85 72 be 92 de c0 bd
       -0.0116562685 -0.16521113 -0.23683731 -0.09417452
000100 65 c5 ad be 44 ea 0a 3e d6 41 64 be d5 6e 40 be
       -0.33939663 0.13565928 -0.2229074 -0.18792279
000110 86 05 75 be db 76 30 be 44 23 a5 bd 60 bd eb bd
       -0.23927888 -0.1723284 -0.08063367 -0.1151073
000120 47 ac 0d be b4 3e 30 be db ab d1 bd 8c ee 00 3e
       -0.1383525 -0.1721142 -0.10237857 0.12590998
000130 95 ab 29 bd 7b cb 83 3d ab 49 9d 3e da 43 f9 3d
       -0.0414234 0.06435295 0.30720267 0.12171145
000140 8d 01 8c 3e 95 4e ad 3e 79 6f c4 3e 24 21 8f 3e
       0.27344933 0.33849016 0.38366297 0.27954972
000150 c9 ad 88 bd b7 0b e5 3d ef a3 2a 3d 66 ea 32 bd
       -0.06673772 0.11183875 0.041660246 -0.04368057
000160 ed 0e 67 be b3 1a 1d 3d a3 59 c6 3d 7a 23 0e 3d
       -0.22564287 0.03835554 0.096850656 0.0347018
000170 5d 95 3d be 55 c5 aa be 09 ba 48 be 7d 13 0c be
       -0.18514009 -0.33353677 -0.19602217 -0.13679309
000180 6d 7d 91 be e6 fb 8d be be af d5 bd 2c b6 82 3d
       -0.28416005 -0.27731246 -0.10433911 0.06382403
000190 a7 15 81 be 63 4a ad be de 01 22 be fa d4 84 bc
       -0.25211832 -0.33845815 -0.15821025 -0.016214836
0001a0 9f 3f 1d be ee 7c 1a be 28 69 f0 bd 19 61 4b be
       -0.15356301 -0.1508672 -0.11738807 -0.19861259
0001b0 cb 65 9c be 04 b1 4e be aa 96 ac bd 89 25 fe bc
       -0.30546412 -0.20184714 -0.084271744 -0.031023758
0001c0 9e 71 20 be 0f 4f 82 bc 71 4c 94 bd c2 3b b8 3e
       -0.15668342 -0.015906839 -0.072411425 0.35983092
0001d0 76 01 07 3e 66 e0 0a 3d 04 d1 b6 3e 4a 01 98 3e
       0.13184151 0.03390541 0.3570634 0.29688483
0001e0 d5 1d c5 3e d4 5b b9 3e a7 b3 2c 3e 1d 72 af 3d
       0.38499323 0.36202872 0.16865407 0.08566687
0001f0 29 b2 09 3e 46 76 d7 3d b6 e0 1d 3d 47 1b 9a 3e
       0.13446869 0.10520606 0.03854438 0.30098936
000200 52 d3 9b 3e 4b a1 c1 3e 4d fc 94 bd 1d 11 bf 3d
       0.30434662 0.3781837 -0.07274685 0.09329436
000210 19 37 01 3e c0 44 5c 3d ea 12 20 3e 40 34 e8 be
       0.12618674 0.053776503 0.15632215 -0.45352364
000220 3b 1a b4 be d9 6d 59 be 12 44 5f be cc 3b f3 bd
       -0.35176262 -0.2123331 -0.2180331 -0.1187664
000230 fe 25 31 be d5 0a 4d be 3f 8f 70 bd 34 96 07 be
       -0.17299649 -0.20023663 -0.05873036 -0.13240892
000240 fd 10 98 3d c6 1a 1b 3e 96 86 07 bd dc 42 0d be
       0.07425115 0.15146932 -0.033087336 -0.13795036
000250 a1 27 bf bd 77 b5 b1 bd 36 48 ff bd 6b 39 0b bc
       -0.093337305 -0.0867719 -0.12464945 -0.008497576
000260 a3 49 a3 3d 8e be 87 3e bf fe 67 bd 66 ad d7 be
       0.079730295 0.2651257 -0.05663943 -0.4212448
000270 16 ea 7a be 1a 1b d9 bd 7f 39 97 3e 25 a7 6a 3e
       -0.24503359 -0.10600872 0.29536054 0.22915323
000280 04 4d cb be a5 7d d8 bd 15 65 96 3d 50 f5 a5 3e
       -0.39707196 -0.1057084 0.073434986 0.3241372
000290 1e 4f a7 3e 1b 8b dd be ad 18 0a bd 02 ac d3 bb
       0.3267755 -0.43270192 -0.03371494 -0.006459714
0002a0 25 ce 4b 3e d7 f6 84 3e 29 e2 05 be 92 3d 86 be
       0.19902857 0.25969574 -0.13074555 -0.2621885
0002b0 cf 9f 70 3e 86 1e b5 3e ed 09 de 3d bb 62 66 3c
       0.23498462 0.3537485 0.10841737 0.014061625
0002c0 cc fb 9e be 8a 6b 37 bc 84 0a ce 3d 12 48 8b 3d
       -0.3105148 -0.011195073 0.100605994 0.06800856
0002d0 da 13 83 3d 4f 7e 2b 3e a5 0d 16 3e b8 9e 61 3e
       0.06400271 0.16747402 0.14653642 0.22033203
0002e0 18 89 30 bd 29 4d 84 3d c4 46 5e bb 56 85 74 be
       -0.043099493 0.0646003 -0.0033916691 -0.23878989
0002f0 55 3f 94 be df e1 c5 bc f4 fb 54 be c1 9d 3d 3d
       -0.28954569 -0.024155555 -0.20799237 0.046293024
000300 c1 1b 43 be 3c 59 a0 be 0f 85 12 be 42 8e 40 3d
       -0.19053556 -0.3131808 -0.1430857 0.047010668
000310 8f 92 dd 3d 82 36 9b 3e 61 bd c2 3e 70 57 5d 3e
       0.108189695 0.30315024 0.3803511 0.21615386
000320 22 d9 4d 3e 69 12 43 3e 50 d0 21 3d 68 03 17 be
       0.20102361 0.19049992 0.039505303 -0.14747393
000330 03 79 ae bd cb 58 09 be cf 9d 22 bd 1c 5d 88 be
       -0.08519175 -0.13412778 -0.03970128 -0.26633537
000340 79 ae 06 be 03 87 a9 be 0b 8f 8b be e6 a2 be be
       -0.13152494 -0.33110818 -0.2725757 -0.37233657
000350 a6 9c 44 be f0 1f a7 be 6c 76 35 be c5 25 af be
       -0.19200382 -0.32641554 -0.17720956 -0.34208503
000360 09 ad e4 bd db 2f 11 be a3 5b 28 bd 12 0d 51 bc
       -0.11165816 -0.14178412 -0.041103017 -0.012759464
000370 bc c7 ce 3d 2a f7 4d be 94 26 9f 3d ca b4 8c bc
       0.1009669 -0.20113817 0.0777103 -0.01717605
000380 e4 70 80 3e c6 1a 02 be e6 c9 26 3e c1 8c 54 3e
       0.2508613 -0.12705526 0.16287956 0.20756818
000390 a9 27 ac 3e de 73 f1 bc b2 f7 2c 3d a1 be da 3d
       0.33624008 -0.029474195 0.04222841 0.10680891
0003a0 3b 4a e8 3d e4 13 b7 3e e7 b0 d2 3e 84 dd 49 bd
       0.11342283 0.35757363 0.4115059 -0.04928352
0003b0 a5 63 14 bd d4 79 ca bd 70 51 cf 3d 61 51 c1 3e
       -0.03622784 -0.09886518 0.10122955 0.377574
0003c0 e8 68 8f be a0 3a 81 be 09 d7 a6 bd cf 6f e2 bd
       -0.28009725 -0.2524004 -0.081464835 -0.11056482
0003d0 06 7b 72 3e 88 12 f2 bd 27 64 29 be 6f 05 92 be
       0.23679742 -0.11819941 -0.16542111 -0.2851977
0003e0 9e 16 3d be 74 bf 7c bc
       -0.18465659 -0.015426505

conv1.bias f4 [10]
000000 d5 72 b0 3d f6 f9 cc 3c 12 73 13 3e 90 88 94 3e
       0.086156525 0.025021534 0.14399365 0.2901044
000010 71 81 d4 3b 8f bd 96 bd 64 bd a4 3e 2c c2 47 3e
       0.006485157 -0.07360374 0.32175744 0.19507664
000020 b0 b6 76 3e 05 b7 76 3e
       0.24093127 0.24093254

conv2.weight f4 [20, 10, 5, 5]
000000 6e 34 be bb f7 98 7e 3c 01 73 78 3c b4 88 07 3d
       -0.00580459 0.015539399 0.015164138 0.033089355
000010 47 64 1a bd af ce aa bd 08 c1 48 3c 48 b0 95 bd
       -0.03769329 -0.08340203 0.0122530535 -0.073090136
000020 fa ea e3 bd fc 5a d0 bd a1 a7 c5 3b 8a 89 c9 3c
       -0.111288026 -0.10173604 0.006031946 0.024601717
000030 ff 83 cf bc e0 1b bc bd 66 81 f3 bd 6f 71 07 3a
       -0.025331495 -0.09185004 -0.11889915 0.0005166744
000040 4f 10 1f 3c 47 ee 11 3d 8a 18 ac bd ac 4c 89 bd
       0.009708478 0.03562763 -0.08403118 -0.06704077
000050 2b aa fb 3b c2 7a 3e bb d5 f8 55 3d ff 3a aa 3d
       0.0076801977 -0.0029064869 0.052239258 0.08312034
000060 fc 3a 79 3d f2 2b 1e 3d 8b 7f c7 bd 4d 15 da bc
       0.060847268 0.03861613 -0.09741124 -0.026621485
000070 02 9e 4a ba 15 58 ca 3b 12 02 6c bd e4 04 72 bd
       -0.00077292335 0.006175051 -0.057619162 -0.059086695
000080 55 38 5e bd 50 61 d3 3c 69 89 f6 bc 37 a9 f4 3c
       -0.05425294 0.025803238 -0.03009482 0.029865844
000090 fc 8b 14 bd 6c 24 32 bd 06 41 c7 bc 94 8a 9f 3d
       -0.036266312 -0.043491766 -0.024322998 0.077901036
0000a0 78 26 50 bb cb 9f 9b 3c 10 a0 f5 3c 21 58 d7 3d
       -0.003176121 0.018997094 0.02998355 0.10514856
0000b0 93 38 5b 3d 49 83 3b 3c cd 1e fe bc fb a5 ab bb
       0.05352075 0.011444875 -0.031020546 -0.0052382923
0000c0 a6 a4 97 bc d5 b6 63 3b 22 67 90 bc e8 63 78 bd
       -0.018511128 0.0034746428 -0.017627303 -0.060642153
0000d0 c0 af 02 bc 95 9a b0 bd 35 b0 60 bd 0a f9 32 bd
       -0.007976472 -0.08623234 -0.054855544 -0.043694533
0000e0 91 1d 92 bd 2d ce cc 3b 06 b4 1a bd e5 64 89 bd
       -0.071345456 0.006250164 -0.03776934 -0.06708697
0000f0 e6 22 72 3d c6 9b a1 3c 44 21 ad 3d fc 40 43 3d
       0.059115313 0.019727599 0.084536105 0.047669396
000100 bf 55 e3 bc 0b 68 c9 3d 58 c8 9b 3d 19 84 1e 3d
       -0.027750848 0.09834298 0.07606572 0.038700197
000110 89 1a ad 3d 2e ff 36 bd 4f 08 2b 3d ed 68 b6 3d
       0.08452327 -0.044676952 0.04175597 0.08906732
000120 51 cb 1f 3d fd e2 87 3c 1d bd b8 bc 06 b4 69 3d
       0.039012257 0.016587729 -0.022551114 0.05705645
000130 fa 45 fc bd f8 8a d3 bd a7 f7 e1 3d 03 f9 47 3d
       -0.123180345 -0.103292406 0.11033564 0.04882146
000140 89 06 2d 3d 09 39 34 bd d0 8a e8 3c 27 a0 4e 3d
       0.04224256 -0.043999705 0.028386503 0.050445702
000150 10 f3 70 3d 82 a4 33 3d 9c a7 8f bd cb 3b 92 3c
       0.058825552 0.04385806 -0.07014391 0.017850777
000160 72 e4 5c 3d f2 cc 81 3d f6 fa df bd 9c 2c 30 3d
       0.0539288 0.06337918 -0.10936539 0.043011293
000170 3f b0 96 3d ef 6e 1c 3e c4 e1 a3 3d 7b f8 d4 bd
       0.07357835 0.15276693 0.08002046 -0.103989564
000180 d4 0a a2 3d 7c 6f 31 3b 00 4b a2 3d 98 cc 63 bd
       0.079122216 0.0027074507 0.07924461 -0.055615038
000190 e8 43 cc 3c d5 ba 14 be 07 c1 cf bd 49 ef de 3c
       0.024934724 -0.14524396 -0.10144239 0.02721371
0001a0 36 6d 3f 3d 9b c7 0c be 5c 57 28 be b3 25 ce bd
       0.04673501 -0.13748018 -0.16439575 -0.10065784
0001b0 bb 8e 5f 3d 62 eb 88 3d f0 8c 01 bd dd 1c 68 bc
       0.054579478 0.06685521 -0.03162855 -0.014167038
0001c0 a7 f1 20 bd 35 f7 cb 3d 96 5c 3d bd 0a 40 bc 3c
       -0.039292958 0.099592604 -0.046230875 0.022979755
0001d0 e9 4b bf bc bb 5f 44 3c 52 a2 b2 bd 3c b6 e0 bd
       -0.023351626 0.011985715 -0.087223664 -0.109722584
0001e0 3b fe 97 3d e5 e0 03 3e 4a 59 0d 3e bb 0b dd 3d
       0.074215375 0.12878759 0.13803592 0.10793253
0001f0 b1 d3 ab bd dc 45 b3 3d 51 26 8b 3d f4 e7 6b bd
       -0.08389986 0.08753559 0.06794418 -0.057594255
000200 3a b2 3b bd b4 3c eb bd 50 30 75 3d a9 04 34 3d
       -0.045824267 -0.114861876 0.059860528 0.043949757
000210 b4 5d 6c 3d ce 6e 85 3d 56 08 94 3d 52 8e 00 3c
       0.05770655 0.06515275 0.072281525 0.007846432
000220 c1 ea f2 bc 42 3e 0f 3d c6 59 e2 3d 16 91 0b 3e
       -0.029652955 0.034971483 0.11052279 0.13629565
000230 44 70 68 3d 37 8e 84 3d b6 30 31 3d 6a 98 a4 3d
       0.05674769 0.06472438 0.043259345 0.08036883
000240 73 5e a6 bb c8 69 99 bd 9f 10 21 3d cd ce 13 3d
       -0.005077177 -0.07490879 0.03932249 0.036085892
000250 8a 98 85 3d 5b 2b 93 bd 9f f7 48 3d f2 09 7b 3d
       0.06523235 -0.07186004 0.049064275 0.06128878
000260 d4 61 26 3d 21 8c 1b 3d 7f 01 0c bd 0c 59 25 3d
       0.04062064 0.037975434 -0.034181114 0.040368125
000270 a3 f4 10 3d b4 de ad bc 16 27 89 3d f1 fc 17 bd
       0.035389554 -0.021224357 0.06696908 -0.037106458
000280 c0 6f 95 bd b9 0a 8a bc fd 0f 1e 3d ed 91 5b bd
       -0.07296705 -0.016850816 0.038589466 -0.053605963
000290 20 c0 36 bd 1c 98 2e bd 82 fe 95 bd 46 fe c9 bd
       -0.04461682 -0.04262553 -0.07323934 -0.09862952
0002a0 6f 80 d9 bc d9 82 ae bd 8a 05 68 bd 25 77 d4 bd
       -0.0265505 -0.08521051 -0.056645907 -0.103742875
0002b0 4b e0 ae bc 6c 0a 1e 3d e0 4a 02 bd 8d 57 1d bd
       -0.021347186 0.038584158 -0.031809688 -0.038413573
0002c0 1f 1f d0 bd e2 50 dc bc 2e 79 d5 3d f5 63 3c 3e
       -0.10162186 -0.026894037 0.10423504 0.18397506
0002d0 93 3e da bd 08 9c 31 bd d8 bb 00 3e b4 3d 13 3e
       -0.10656466 -0.043361694 0.12571657 0.14379007
0002e0 23 36 3f 3e 9d d6 9e bd 34 45 a6 bd d5 85 13 bb
       0.18672995 -0.07755778 -0.08118668 -0.002251019
0002f0 22 6d f8 3d 3a 5c cc 3d 32 5e 51 bc 4a ba 20 3d
       0.121301904 0.09978528 -0.012778806 0.03924016
000300 9e e0 11 3e b5 be 24 3e 6a 80 a5 3d e0 0b 81 bd
       0.14245841 0.16088374 0.08081134 -0.06301093
000310 0b a8 cc 3d e0 9f a1 3d 5f 45 72 3d 2a e6 24 be
       0.09992989 0.07891822 0.05914819 -0.16103426
000320 9b b7 12 be cd 4c 16 be 57 bb 5b bd f7 58 e2 bd
       -0.14327852 -0.14677735 -0.053645458 -0.11052125
000330 a2 2f f3 3c 2c 97 31 bc b2 41 e3 bd 79 23 8b bd
       0.029685799 -0.010839265 -0.11096515 -0.06793875
000340 ff a4 04 bd 87 45 3b bd 39 60 33 3d 9c 07 69 bd
       -0.032383915 -0.045720603 0.043792937 -0.056892022
000350 d4 43 59 3c 00 b6 35 3d 1a 8d 9f bd c2 38 a6 3d
       0.0132608 0.04436302 -0.07790585 0.081162944
000360 25 e4 f2 bb eb 92 09 3c 33 e2 fa bc 0f 2c 72 3c
       -0.007412451 0.008396844 -0.030625438 0.014781012
000370 2b 3b 08 3d 50 06 e7 3d 26 4d 9a 3d e4 5e ba 3d
       0.033259552 0.11280501 0.07534246 0.0910013
000380 cf 20 89 3d f1 dd 47 3e d4 af 1c 3e 9f c1 6c 3c
       0.06695711 0.19518258 0.15301448 0.01445046
000390 6f ea 3b bd 18 a3 0d be 5a 34 2e 3e 6a aa 9c 3d
       -0.04587787 -0.13831747 0.17012158 0.076496914
0003a0 cc 99 1e 3d 2c fe 0a 3e 75 6f 95 3d 11 a9 10 3d
       0.03872089 0.13573521 0.07296649 0.035317484
0003b0 87 44 ec 3d d6 0b 74 3d fe f5 a4 3d bd 3d 01 3e
       0.11536508 0.0595816 0.08054732 0.12621208
0003c0 d3 72 49 3d b6 b5 90 3c 5a 00 04 3e 76 73 0e 3c
       0.04918177 0.017664772 0.12890759 0.00869452
0003d0 d0 e0 68 3c c7 3c 8a bd 3c 82 2b bd a9 70 43 bd
       0.014213756 -0.067498736 -0.041872248 -0.047714863
0003e0 5e 2c ba bd 3e 06 ac bd 6e 6e 91 bd 0e 71 00 3c
       -0.090904936 -0.08399628 -0.07101141 0.007839454
0003f0 f9 22 55 3d 10 51 51 bc 95 65 df 3b 24 dd 0b be
       0.052035306 -0.012775674 0.0068175294 -0.13658577

conv2.bias f4 [20]
000000 78 0d 05 bd 53 1c 97 3c 7e 1f 12 3d 15 a7 d0 bc
       -0.032483548 0.018446123 0.035674565 -0.025470296
000010 ea 91 d7 3c 08 a8 2a bb 8f 11 5a bd 05 8d 8b bc
       0.026314694 -0.0026040096 -0.0532394 -0.017035017
000020 e5 a5 49 3d f9 c0 13 bd eb 6a 32 bd cf 3d 64 3d
       0.049230475 -0.036072705 -0.043558996 0.055723008
000030 cd c3 55 bd 2f a4 b7 3d 82 66 83 3d b0 d0 c7 ba
       -0.052188683 0.089668624 0.06416036 -0.0015244689
000040 70 23 5f bc fd 68 1e bd 12 27 89 3d 17 c4 80 3d
       -0.013619289 -0.038674343 0.06696905 0.06287401

fc1.weight f4 [50, 320]
000000 24 31 4b bd fe b3 4c bd 30 63 f4 3c 64 3e c0 3c
       -0.04960741 -0.04997634 0.029832453 0.02346725
000010 ec 54 1e 3c 9a e3 17 bc eb 5d 9f 3c 4a 77 69 3d
       0.009663802 -0.009270573 0.019453963 0.05699853
000020 e3 14 04 bd c5 14 ba 3b c8 d4 2b 3d eb ef bb bc
       -0.03224648 0.0056787455 0.04195097 -0.02294155
000030 71 8b 43 bd a2 08 4d 3d 52 2f 28 bd 0f 5b 79 3c
       -0.047740404 0.05005706 -0.041060753 0.015219464
000040 ac ee 1d bd a0 e6 13 bd e3 c4 c8 3c 23 ae 0c 3d
       -0.038557693 -0.036108613 0.024507945 0.034345757
000050 61 fe 5a bd 22 23 7d bd 01 b9 d8 3d 75 82 cc bb
       -0.05346525 -0.061801083 0.10582162 -0.0062411376
000060 72 08 33 bc e6 94 6f bd 6f 28 22 bd d4 06 a2 3c
       -0.0109273065 -0.05849161 -0.03958934 0.019778647
000070 64 22 8f bd a1 dc 95 bd f4 2b 45 3d d8 43 9d 3d
       -0.06988981 -0.07317472 0.04813762 0.07678956
000080 0a bb 4b bc 17 92 15 bd 31 f1 fc 3c ac 1a d8 3c
       -0.01243473 -0.036516275 0.030876728 0.026379906
000090 10 0b 10 3d f2 60 a7 bc 2e 06 da 3c 04 04 c2 bb
       0.0351668 -0.02043197 0.026614275 -0.005920889
0000a0 09 f1 ed bc 1d c8 5e bd 1c c5 fd bc 52 32 1c 3d
       -0.029045599 -0.05439006 -0.030977778 0.038133927
0000b0 fe 9f 7d bd f9 d2 29 3c 5b 7f 2c 3d 13 a7 b4 bd
       -0.06192016 0.010365241 0.042113643 -0.088209294
0000c0 79 ad 1b bd 33 6b 10 3d c9 c9 d2 3c 38 3a bc 3d
       -0.038007233 0.035258483 0.025730984 0.09190792
0000d0 d9 0f 1f bc 92 cb 83 bd 15 17 8f bc 98 8c 32 3d
       -0.009708368 -0.06435312 -0.017467061 0.043591112
0000e0 fd 31 cd bd e5 7d 3b bd 62 2b 11 3c 88 73 a0 bc
       -0.100193 -0.04577436 0.008860441 -0.01958634
0000f0 6e aa 83 3d d6 bd 86 3c d9 ed 7c 3d 21 3d ad bd
       0.06428991 0.016447943 0.061750267 -0.08458925
000100 6c 77 af bd 93 77 99 3c 8d a3 a9 3c 26 7f 53 3d
       -0.085677 0.018733775 0.02070787 0.05163493
000110 54 cd 5d bd b6 28 96 bc 62 31 21 3d 63 a9 95 3b
       -0.054150894 -0.01832996 0.039353736 0.0045673116
000120 aa 78 22 bd cd 88 a8 bc 0e 08 df bc e9 3e 2c bd
       -0.039665855 -0.020573044 -0.02722552 -0.042052183
000130 82 7c 14 bd 56 2b 94 3a 92 96 97 bc 11 a3 d3 3c
       -0.036251552 0.0011304419 -0.018504415 0.025834592
000140 f7 59 0b 3d 5e 81 92 3d 38 50 1f 3d 3c b1 12 3a
       0.034021344 0.07153581 0.038894862 0.0005595868
000150 83 3b 7d bb 1a f8 53 3b 7e d0 1d bb 44 52 9e bd
       -0.0038640208 0.0032343925 -0.002408057 -0.07730535
000160 eb 08 80 3c e8 a3 84 3c 5c 7a f5 3c 0a 90 ba bd
       0.015629252 0.016191438 0.029965572 -0.091095045
000170 98 9c ba 3c 5b 3b 3a 3d 9b fa 03 3c 33 94 0e bd
       0.022779748 0.045466762 0.0080553545 -0.034809303
000180 85 9c 8d 3c c9 43 9e 3d c4 76 51 3c 22 77 70 bd
       0.017286548 0.07727773 0.012784664 -0.058707364
000190 bc 99 93 bd 4b 33 89 bc 60 44 28 3c d0 c4 62 bc
       -0.07207057 -0.016748091 0.010270208 -0.013840869
0001a0 63 61 17 3d 93 23 b6 b8 e9 fa 25 3d 08 d4 a3 ba
       0.03695811 -8.6850625e-05 0.04052249 -0.0012499103
0001b0 49 b1 3c bd 9c aa 26 bd 6c b8 29 bd f3 5e 93 3d
       -0.04606751 -0.04069005 -0.041435644 0.071958445
0001c0 0f e2 14 be 5a 53 2e bd 1f 5f 9d 3c 6f 2b a4 3d
       -0.1453936 -0.04255996 0.019210396 0.08016097
0001d0 eb d5 81 3c 12 13 a8 bb 8d 6b e0 bc e6 e1 78 bc
       0.015849074 -0.0051292265 -0.027395034 -0.015190577
0001e0 74 32 02 3d 8c 41 20 bd b4 2a c9 bc 23 e8 54 bc
       0.031786397 -0.03912501 -0.024556495 -0.012994799
0001f0 f9 51 6a bd ef 74 a0 3d 36 a1 1b 3d 4e c2 58 ba
       -0.05720708 0.07834803 0.03799554 -0.00082687
000200 e6 a1 9b 3c 07 37 67 3d 65 6e a2 3d a4 3e 19 3d
       0.018998098 0.056448963 0.07931212 0.037413254
000210 f3 14 70 bd ae d5 5c bd a0 c6 90 bd cf 4e 84 3d
       -0.05861373 -0.05391472 -0.07069135 0.06460344
000220 22 d3 23 3c ae 21 ae 3c 1d d9 44 3d b9 9a 99 3d
       0.009999068 0.021256294 0.048058618 0.07500214
000230 73 6e dd 3c ff 66 ae bd 02 dc f4 bb b6 9b 83 3c
       0.027030205 -0.08515739 -0.007472516 0.01606546
000240 f3 a8 26 be 27 e8 b5 bc 21 9e 14 3d 1b 59 28 3e
       -0.16275387 -0.022205425 0.036283616 0.16440241
000250 56 63 c9 bc 67 01 e5 ba dc c5 b4 3c f3 71 45 3d
       -0.0245835 -0.0017471731 0.022067003 0.048204374
000260 c1 18 ae bd 7f b6 95 bc d1 43 fd 3c 25 8b 45 3c
       -0.08500815 -0.018275497 0.030916126 0.0120571
000270 59 7c bb bd 8a db 29 3d 3c 28 94 3c 0d eb 2c bd
       -0.09154577 0.041469134 0.018085591 -0.04221635
000280 7e 0c c6 3c 80 b6 5b bd 8b 85 b9 bc b7 3c 9a 3d
       0.024175879 -0.053640842 -0.022646686 0.07531112
000290 b9 86 2f bd 2f 45 85 3c 46 f3 77 bc 59 db 76 3d
       -0.04285309 0.01626834 -0.0151336845 0.06026778
0002a0 f7 ed 99 bc 46 92 b2 bc 74 5c 3f bd 17 1c 61 bd
       -0.018790228 -0.021798264 -0.04671903 -0.05495843
0002b0 bb 00 da 3c e2 94 37 3d fe f8 6c 3c 7e 51 38 bd
       0.026611676 0.04481972 0.014463661 -0.044999592
0002c0 7c 00 a7 3d 4a cf b5 3d 7c 6d bc 3d bb 4e 86 3c
       0.08154389 0.08877428 0.0920057 0.016394963
0002d0 90 70 4a bc 96 f5 46 3d 8f dd 92 bd 8f 85 af bc
       -0.012355939 0.048574053 -0.07171165 -0.02142599
0002e0 87 8a cc bc a4 ee 1f 3d 41 77 93 bc b7 7d a4 bd
       -0.024968399 0.039045945 -0.0180012 -0.08031791
0002f0 7a 75 c1 bc 0f 9b e7 3b 66 d8 d1 3d 06 eb 79 ba
       -0.023615588 0.007068045 0.10246353 -0.00095336174
000300 83 14 f7 ba 6a ef 84 3d 5a 07 40 3d 7c ea 67 3d
       -0.0018850717 0.06490977 0.04688201 0.056620106
000310 38 bd a7 bd 67 5a 02 3d 3d 97 5f 3c 15 76 c6 3d
       -0.081903875 0.031824496 0.013646898 0.09690491
000320 65 b4 de bc 61 a2 84 bb 7d 1a 42 bd 24 34 1e 3d
       -0.027185628 -0.0040476774 -0.047388542 0.038623944
000330 4f a3 cf bc b5 de c1 bd bc 9b 90 3d 6c fd 1b bd
       -0.025346426 -0.09466306 0.07060954 -0.03808348
000340 34 db 8e 3b bb b7 96 3c 00 e8 27 bd fd 57 c4 bd
       0.004359627 0.018398156 -0.040992737 -0.09587095
000350 e8 96 20 3d de a7 92 3d 6d 8d bb bc 57 55 e3 bc
       0.039206415 0.071609244 -0.022894586 -0.027750654
000360 e8 cf 66 bb d9 4a 81 3d 42 c7 6f 3d ed f5 bc bc
       -0.0035219137 0.06313104 0.058539636 -0.023066485
000370 68 3d 3f 3d fc 9f c1 bc ff 6d 73 bd f0 fd 77 3d
       0.04668942 -0.023635857 -0.059431072 0.060544908
000380 9c 50 79 3d 2f 0c c2 3d 59 28 64 3d 6b cc aa bd
       0.06086789 0.0947498 0.05570254 -0.08339771
000390 d0 fb fb bc bf a5 68 3c 2c 83 58 bd 13 31 c9 bd
       -0.030759722 0.014199673 -0.05285947 -0.09823813
0003a0 70 cd 65 3d a7 b5 d4 3c af db 23 3d 18 cc 2b bd
       0.056104124 0.025965525 0.04000443 -0.041942686
0003b0 d5 43 9f 3c 36 9c dd bc 54 d4 18 bd d5 a9 bb 3d
       0.019441525 -0.027052026 -0.037311867 0.09163252
0003c0 ab 2f 86 bd 97 08 ff bc 66 3e 69 3d 62 46 e4 3c
       -0.06552061 -0.031132026 0.056944273 0.027865592
0003d0 9a a7 66 bd bf e3 b7 bc f7 ae ee 3c b5 4c 3b 3d
       -0.05631218 -0.022447465 0.029136164 0.04572745
0003e0 de f1 c0 bd 0f fc a9 bb 5a 50 44 bc 13 70 3f bc
       -0.094211325 -0.0051875184 -0.011982048 -0.011684435
0003f0 bf e5 28 bd bf cb a5 3c 58 9e dd 3c 53 71 d5 3b
       -0.041234728 0.020238755 0.027053043 0.0065137534

fc1.bias f4 [50]
000000 c2 b0 df 3d c2 f4 8e 3d c5 a8 82 3d 74 e0 68 bb
       0.10922386 0.069802776 0.063798465 -0.0035534175
000010 29 b1 f4 b9 9c 57 aa 3d 55 a7 37 3d be 6d 3d bc
       -0.000466713 0.083174914 0.044837315 -0.011561809
000020 ae c4 85 3d 0d c3 80 3c f2 74 c8 3d 8a c3 e7 3c
       0.06531654 0.015718007 0.097879305 0.028291482
000030 e8 40 01 3e 3e 98 c8 3d 9b 59 a8 3d be 15 9b ba
       0.12622416 0.09794663 0.08220216 -0.0011832041
000040 d3 a3 be 3c a7 cf 6c 3c ab 61 1a 3e a3 56 83 3d
       0.023271477 0.014453805 0.1507632 0.06413009
000050 b0 38 8b 3b 3f c5 b3 3d c3 48 73 3d 25 d0 93 3d
       0.004248701 0.08777856 0.059395563 0.07217435
000060 28 2f 8b 3d 61 b1 9b 3d ee 09 15 bd 7f b4 83 3d
       0.06796104 0.07602192 -0.036386423 0.06430911
000070 5f 5f 07 3c 59 98 fb 3d 65 99 a7 3c 04 00 cb bb
       0.008262484 0.122849174 0.020458886 -0.00619507
000080 13 db a9 3d ec ba 3c 3c a6 2b 56 3c 62 63 f3 3d
       0.08293738 0.011519175 0.01307193 0.1188419
000090 b4 70 18 bd 3e c8 c2 3d 83 a6 95 3d 67 2f 0a 3d
       -0.037216857 0.095108494 0.0730715 0.033736613
0000a0 36 1a 4a 3e 82 a1 d8 bb c0 59 d8 3c 42 bc 32 3e
       0.19736561 -0.00661105 0.026409984 0.17454627
0000b0 3d b7 de 3c d9 1e 1b 3e 21 53 1e 3e da 7e b0 3c
       0.027186984 0.15148486 0.15461399 0.021544863
0000c0 82 06 03 3e a6 cc cf 3d
       0.12795451 0.101464555

fc2.weight f4 [10, 50]
000000 a1 f8 0f 3e d2 a2 2d be 76 3f 91 be 56 57 9e be
       0.14059688 -0.16956642 -0.2836873 -0.30926007
000010 37 21 34 bd 66 b0 2c be e6 d3 0c 3e 7a de b6 3d
       -0.04397699 -0.16864166 0.13752708 0.08929153
000020 c8 40 83 be 20 be 6f bd ec c7 66 be 70 52 4e be
       -0.25635362 -0.058530927 -0.22537202 -0.20148635
000030 1e b3 26 3e b4 71 0d 3d e1 4b 39 3c a6 32 f7 bd
       0.16279265 0.034532264 0.011309595 -0.12070207
000040 2c 79 82 3d 1d ba be 3d 6d e4 30 be 10 a2 62 be
       0.06370768 0.09312842 -0.17274638 -0.22132134
000050 a4 5a 87 3d 76 86 27 3e 3c e5 d1 3c bc e7 39 be
       0.06609085 0.16359887 0.025622003 -0.18154806
000060 8c 4c 7d be 1d 1b 09 be d6 c4 93 be 0c 6d 5e be
       -0.24736232 -0.13389249 -0.2886111 -0.21721286
000070 41 50 c9 3d a4 ac ab bd 28 9c 00 3e 16 5c fd bd
       0.0982976 -0.08382538 0.12559569 -0.123710796
000080 b8 b3 e1 3d 38 4d 49 be 86 68 f6 bc 63 c6 2b 3e
       0.11020607 -0.19658363 -0.030079138 0.16774897
000090 fa 4c e1 3d 1b ad 67 3e 1b b9 94 be fb 7a b7 3d
       0.1100101 0.22624628 -0.29047474 0.089590035
0000a0 ed 69 30 be 5e 78 4b be 1b b5 a9 3d ee a6 35 be
       -0.17227907 -0.19870135 0.08286496 -0.1773946
0000b0 4d 1a 4f 3d 8c f7 13 be 18 3c 11 be 6b 9b 60 3e
       0.05056219 -0.144499 -0.1418308 0.21934287
0000c0 17 54 49 be 34 05 ab 3d 17 84 e7 3d 1b 17 3b be
       -0.19660984 0.08350602 0.11304491 -0.18270533
0000d0 f1 44 dc bd 15 4a 08 bd 78 e5 4f be ce 20 73 3e
       -0.10755337 -0.033273775 -0.20302379 0.23742983
0000e0 5b 3d 32 be 6d c9 61 be e3 c2 af 3d dc 84 29 be
       -0.17406218 -0.22049494 0.085820936 -0.16554588
0000f0 6b 13 82 3e a1 7b 8e be 76 81 02 3e e9 f1 65 be
       0.2540544 -0.27828696 0.12744698 -0.22455563
000100 ec 72 ce 3d d9 7d 54 be a5 f4 b8 bb 28 b9 ba be
       0.10080513 -0.20751132 -0.0056443983 -0.36469388
000110 dd dc ec 3d a7 57 36 3e b0 d2 9a bd 4c 68 89 be
       0.11565564 0.17806874 -0.07559717 -0.26837385
000120 a0 7c 60 bd ba 6d 87 3d d5 be 0b bd df b4 c0 3d
       -0.05480635 0.066127256 -0.03411754 0.094094984
000130 3a 03 81 be fa 40 1b 3e 09 07 be be 9d a8 1d 3e
       -0.25197774 0.15161505 -0.37114742 0.15396352
000140 9a c6 49 be c6 20 2b be 0d 3c 98 3d 40 fd 84 be
       -0.19704667 -0.16711721 0.07433329 -0.25974464
000150 e6 af 58 be a4 52 1f 3e 6e 98 42 be 18 58 31 be
       -0.2116085 0.15558869 -0.1900346 -0.17318761
000160 ba 12 e8 3d 71 09 e6 bd 08 90 ef 3d 04 88 a6 bd
       0.11331697 -0.112322696 0.11697394 -0.08131412
000170 34 6a 68 be b8 d6 02 3e 78 fa cb 3c 58 63 96 3d
       -0.22696763 0.12777221 0.024899706 0.07343167
000180 a5 94 0a 3e 77 0f 76 be ef 6c a2 3d a0 11 f8 bd
       0.13533266 -0.24029337 0.07930934 -0.12112737
000190 c4 06 32 be 34 83 a5 bd fc b4 da bd b8 09 d9 3d
       -0.17385393 -0.08081666 -0.10679051 0.10597557
0001a0 7e 1b 55 3d 04 d9 6e be ef 46 0f 3e 4e bc 6d bd
       0.05202817 -0.23324972 0.13991903 -0.05804091
0001b0 5c 62 0a be 4a e0 66 bd 00 f2 1d 3c da d2 fb bd
       -0.13514084 -0.056366242 0.009640217 -0.12296076
0001c0 4e cf 17 3e be 98 50 3d 93 8a a4 3d 30 bd 1a be
       0.14825174 0.050926916 0.080342434 -0.15111232
0001d0 03 98 81 3d b9 87 81 bd 7f d6 f7 3d 5a 60 09 be
       0.06327822 -0.06324715 0.12101459 -0.13415661
0001e0 d2 2b ad 3d 56 f2 6d bc 5d 2f 36 be a1 86 a9 3d
       0.08455624 -0.014523109 -0.17791505 0.082776316
0001f0 7b 05 ca bd a4 54 30 be 68 f1 b5 bd a2 d1 65 bd
       -0.098643266 -0.17219788 -0.08883935 -0.056108125
000200 b5 a3 55 3d 60 b9 1e 3e a9 8c 02 be 8d 9f 46 3e
       0.052158076 0.15500402 -0.1274897 0.19396801
000210 a5 ea 55 be f3 71 94 3c ae ed 64 be 8b 5a be bc
       -0.20890291 0.018120741 -0.22356293 -0.023236534
000220 b3 27 08 3e 4f 67 79 bd cf 6f d3 3d 08 66 dc 3d
       0.13296394 -0.06088954 0.1032406 0.107616484
000230 d3 1a fc bd f2 ca de 3d 4c e7 09 be b6 e5 2b be
       -0.12309804 0.108785525 -0.13467139 -0.16786847
000240 c8 ab 51 3c f6 2e 8c 3d 89 8f 12 be e6 20 da bd
       0.0127973035 0.068448946 -0.14312567 -0.10650806
000250 80 fc f5 3d ae 42 f7 bc 27 b3 57 be f5 fe e8 bd
       0.12011051 -0.030183163 -0.21064435 -0.11376754
000260 fd 6d 8e 3d ba cd f2 3d bc de 37 be e4 fb 1b be
       0.06954572 0.118556455 -0.1795606 -0.15232807
000270 82 45 fa bd 49 fe 80 3d cd 0e 14 3e 74 bd 45 bd
       -0.12220289 0.06298501 0.14458771 -0.04827638
000280 f6 e2 73 be d9 c8 1a 3e 9b 47 f9 bd 4c e2 0a be
       -0.23817047 0.1511568 -0.12171861 -0.13562888
000290 7c 71 e1 3d f1 23 23 3e 20 ef 84 3d 4f bb 11 3e
       0.110079736 0.1593168 0.06490922 0.14231609
0002a0 ea 8f 92 39 22 b5 c9 bc 82 01 cd 3d db 97 47 3c
       0.00027954514 -0.024622504 0.10010053 0.012182201
0002b0 79 b6 71 be e3 05 81 bd 55 2c 32 be a1 10 06 3e
       -0.23604764 -0.06299951 -0.17399724 0.13092281
0002c0 f2 1b 00 be a4 2b 09 3e 87 65 c6 bd 4d 90 b9 bd
       -0.1251066 0.13395554 -0.096873336 -0.09060726
0002d0 cf e1 26 bd ba 49 b2 bd 7c b7 45 be 46 da 3c bd
       -0.04074269 -0.087054685 -0.19308275 -0.0461066
0002e0 90 31 74 bd 10 7c 66 be 97 c5 a8 3b b4 5c 0b be
       -0.05961758 -0.22508264 0.0051505077 -0.13609582
0002f0 9b fe de 3d bc 03 c4 3d a6 97 0c be 0f 02 07 3e
       0.10888406 0.09571025 -0.13729724 0.13184379
000300 fe 40 c4 3c 40 24 d4 bd 70 f2 df 3d 4c e5 09 be
       0.023956772 -0.10358477 0.10934913 -0.13466376
000310 5f 53 84 be 52 21 0f be 54 9b 13 bd da 29 7f be
       -0.25844857 -0.13977554 -0.036036804 -0.24918309
000320 12 eb 24 be c3 0a ba 3d 43 73 89 3d 71 1a 83 be
       -0.16105297 0.09084084 0.067114376 -0.2560611
000330 ea b6 48 be a4 69 11 be 17 fe 2c be fd 0e 81 be
       -0.19601026 -0.14200455 -0.16893803 -0.25206748
000340 20 a7 af 3c 22 ed 38 be 62 37 80 3e 64 62 af 3d
       0.021441996 -0.18059209 0.25042254 0.085636884
000350 5b a2 9f bc 55 f0 a8 3d 9e b2 b0 3d 7c e6 c5 bd
       -0.019486597 0.08248965 0.086278185 -0.09663102
000360 20 c5 62 be 29 66 9d 3d b5 69 aa bd 33 b5 14 3e
       -0.2214551 0.07685501 -0.08320943 0.14522247
000370 05 d1 83 be 22 60 52 be 5f 2b d4 3d 3b 97 3b be
       -0.25745407 -0.20544484 0.10359835 -0.18319409
000380 ab 5f 2e 3e 8e e3 0f bd 61 01 df 3d b1 d9 c8 3b
       0.17028682 -0.035129122 0.10888935 0.0061294665
000390 9f cb 80 3d 11 47 08 3e d8 42 74 be 54 cd b0 bc
       0.06288838 0.1330836 -0.23853624 -0.021582283
0003a0 52 21 30 be 71 1d 09 3e e4 98 e6 bd 5a 0c da bd
       -0.1720021 0.13390137 -0.1125963 -0.10646887
0003b0 be 65 0d be b7 cf 09 be 75 c7 23 be 67 dc ac 3d
       -0.13808343 -0.13458143 -0.15994056 0.08440476
0003c0 e7 84 01 3e 4c db b7 3d 71 4e f0 3d 73 e6 02 3e
       0.12648354 0.089773744 0.117337115 0.12783222
0003d0 73 d5 5e be ea e2 ac 3d 67 28 f8 3d 9a 8e 57 3d
       -0.21761112 0.08441718 0.12117081 0.05262623
0003e0 8b 35 14 bd dc f4 08 3e 37 68 e5 3d 1e 49 0b be
       -0.036183875 0.13374656 0.11201518 -0.1360211
0003f0 b5 fd 88 3d 35 2b 9d 3d 32 86 58 3d 15 70 28 3e
       0.06689016 0.07674257 0.052862354 0.16449006

fc2.bias f4 [10]
000000 a4 c6 06 3e c1 cb 69 3e 72 55 6d bd 2f 46 15 3e
       0.13161713 0.22831632 -0.057942815 0.14577554
000010 78 ff 56 be ff 8e 09 be 4c 44 8f 3d 57 9f ef 3c
       -0.20995891 -0.13433455 0.069954485 0.029250784
000020 b8 6f 26 3e e0 fe 67 3c
       0.16253555 0.014159888
