model.pth (torch, 90280 bytes, 8 tensors)

conv1.weight f4 [10, 1, 5, 5]
0	0xbea8c8c2	-0.32965666
1	0xbda40121	-0.08008028
2	0xbcfd6bf3	-0.030935263
3	0xbc1190ce	-0.008884622
4	0x3e10db3c	0.14146131
5	0xbea89c18	-0.3293159
6	0xbca84ea0	-0.020545304
7	0x3e9243ae	0.2856726
8	0x3e93cbed	0.2886652
9	0xbd59076b	-0.05298559
10	0xbec8ef71	-0.3924518
11	0x3e03bfd2	0.12866142
12	0x3f0062c3	0.501507
13	0x3eb9d5d6	0.36295956
14	0xbe648880	-0.22317696
15	0xbdbae936	-0.09126513
16	0x3eda8639	0.4268053
17	0x3ed3bf87	0.4135706
18	0x3e4cbeb1	0.19994618
19	0xbf054d15	-0.5207074
20	0x3d9103e4	0.0708082
21	0x3ebb3862	0.36566454
22	0x3d1fc769	0.03900853
23	0xbe45327a	-0.19257537
24	0xbebdb3ea	-0.37051326
25	0xbe5ea23f	-0.2174158
26	0x3c5d61b3	0.013512063
27	0xbd084bee	-0.033275537
28	0x3e002f7c	0.12518114
29	0x3e95d56c	0.2926439
30	0x3e6784d9	0.22609271
31	0x3e5ab23e	0.21357056
32	0x3ec6464b	0.38725504
33	0x3eb56470	0.3542819
34	0x3e9ed252	0.31019837
35	0x3e891aa0	0.26778126
36	0x3e6dea65	0.23233946
37	0x3da0f90e	0.078600034
38	0x3e4a3372	0.19746187
39	0x3d0d2ac0	0.034464598
40	0xbd38c0d3	-0.045105767
41	0xbd8afd2f	-0.06786572
42	0xbc94ba39	-0.018155204
43	0xbe8e613d	-0.27808562
44	0xbea67d25	-0.32517353
45	0xbe99ee36	-0.30064553
46	0xbe1886bb	-0.14895146
47	0xbed53f1e	-0.41649717
48	0xbe4c4147	-0.19946776
49	0xbe42467e	-0.18972203
50	0x3e803367	0.25039217
51	0xbe5875f6	-0.21138749
52	0xbe0b8c57	-0.13627754
53	0xbde8b6aa	-0.113629654
54	0xbeb6425b	-0.355975
55	0x3e72f40d	0.2372591
56	0xbe005408	-0.12532055
57	0xbe445560	-0.19173193
58	0xbea1fbf3	-0.31637534
59	0xbdeeb863	-0.11656263
60	0x3cec2858	0.028827831
61	0xbe066638	-0.13124931
62	0xbe919416	-0.28433293
63	0xbe192ee3	-0.14959292
64	0xbeb97c2a	-0.36227542
65	0x3e20d53a	0.1570634
66	0xbe81cb52	-0.25350434
67	0xbe705cb9	-0.23472871
68	0xbe951626	-0.2911846
69	0xbe590b67	-0.21195756
70	0xbd65c46b	-0.056095522
71	0xbe0ae71e	-0.13564727
72	0xbe4c4a2c	-0.1995017
73	0xbe80e18f	-0.25172088
74	0xbe46aef1	-0.19402672
75	0x3e065af0	0.13120627
76	0x3c8d25dc	0.017229967
77	0x3e03a472	0.128557
78	0x3ec0e1b2	0.37672192
79	0x3e38e881	0.18057443
80	0x3e9e9707	0.309746
81	0x3ec8e376	0.3923604
82	0x3edd33a9	0.43203476
83	0x3e9e8e11	0.30967763
84	0xbdbaef31	-0.091276534
85	0x3e1da886	0.15396318
86	0x3dd3c0b6	0.10339491
87	0xbc44bf7e	-0.012008546
88	0xbe8113c9	-0.25210407
89	0xbcd7bd45	-0.026335368
90	0x3df65cb0	0.120293975
91	0x3d2145be	0.039373152
92	0xbe57ab27	-0.21061383
93	0xbece8271	-0.40333894
94	0xbe752a03	-0.23941807
95	0xbe1f458c	-0.15553874
96	0xbea3086c	-0.31842363
97	0xbea1130e	-0.3145985
98	0xbde5eb7c	-0.11226556
99	0x3ddc4751	0.1075579
100	0xbe6f5181	-0.23370935
101	0xbeb3ea28	-0.35139585
102	0xbe2eda15	-0.17075379
103	0xbcbbf078	-0.022941813
104	0xbe150d09	-0.14555754
105	0xbe021aa7	-0.1270548
106	0xbe2408dd	-0.16019006
107	0xbe8bd3cd	-0.2731003
108	0xbec544cc	-0.3852905
109	0xbe80417e	-0.25049967
110	0xbd776666	-0.06040039
111	0xbd4367b0	-0.047706306
112	0xbe3fb3fc	-0.18721002
113	0xbd645a70	-0.05575031
114	0xbda10402	-0.078620926
115	0x3ecca303	0.39968118
116	0x3e2a233e	0.16615006
117	0x3d8091cc	0.062778085
118	0x3eba11bc	0.36341655
119	0x3e9c5b00	0.30538177
120	0x3ed204fa	0.41019422
121	0x3ed51d4e	0.4162392
122	0x3e56126a	0.20905462
123	0x3dda3815	0.10655228
124	0x3e11151f	0.14168213
125	0x3e036c42	0.12834266
126	0x3d9c1a51	0.07622207
127	0x3eaddfc9	0.33959797
128	0x3ea77995	0.32709947
129	0x3ec355d9	0.38151434
130	0xbde02e0d	-0.109462835
131	0x3d9bd2db	0.07608577
132	0x3df4152d	0.119181015
133	0x3db57f50	0.088621736
134	0x3e49fbc0	0.19724941
135	0xbf033f7a	-0.5126873
136	0xbedb4714	-0.42827666
137	0xbe9830d1	-0.29724744
138	0xbe808bca	-0.2510665
139	0xbdd08662	-0.101818815
140	0xbe2f4a46	-0.17118177
141	0xbe655eb2	-0.22399405
142	0xbe0efddf	-0.13964032
143	0xbe4183d0	-0.18897939
144	0x3d4a8562	0.04944361
145	0x3e55bd0b	0.20872895
146	0x3c828a64	0.01593513
147	0xbde66ef1	-0.11251629
148	0xbd948fdb	-0.07254001
149	0xbd9e9807	-0.07743841
150	0xbe10c388	-0.14137089
151	0xbd207374	-0.039172605
152	0x3da697cb	0.08134421
153	0x3e981b38	0.29708266
154	0xbd0a892a	-0.033822216
155	0xbeddf153	-0.43348178
156	0xbe84ff04	-0.2597581
157	0xbda78a4a	-0.081806734
158	0x3ea64e25	0.32481495
159	0x3e80794e	0.25092548
160	0xbeec0d04	-0.4610368
161	0xbe03f308	-0.12885678
162	0x3dbf27bd	0.09333751
163	0x3eb6b51a	0.35685045
164	0x3eb83b70	0.35982847
165	0xbef61d24	-0.48069108
166	0xbc39029c	-0.011292126
167	0x3d20b488	0.039234668
168	0x3e735077	0.23761164
169	0x3e9e19ce	0.30879062
170	0xbe1e1a14	-0.15439636
171	0xbe83a748	-0.25713563
172	0x3e7f9ef7	0.24962984
173	0x3ebf5d06	0.3737566
174	0x3e124c2f	0.14286874
175	0xbca36568	-0.019945815
176	0xbebef73a	-0.37297994
177	0xbc7e0eb3	-0.015506434
178	0x3db838ba	0.08995195
179	0x3d5cf279	0.053942177
180	0x3d33e136	0.04391595
181	0x3e2fb328	0.17158186
182	0x3e2cdc36	0.16880879
183	0x3e5f4814	0.2180484
184	0xbd7b882f	-0.06140917
185	0x3d6c0d27	0.05762973
186	0x3ce55930	0.02799663
187	0xbe735933	-0.23764496
188	0xbeb98d16	-0.36240453
189	0xbd8b834d	-0.06812153
190	0xbe61998d	-0.22031231
191	0x3d32de9e	0.043669336
192	0xbe6f7946	-0.23386106
193	0xbeb5d45c	-0.3551358
194	0xbe10daed	-0.14146014
195	0x3d76b9e5	0.060235877
196	0x3dea90fb	0.11453434
197	0x3ea4d092	0.32190377
198	0x3ed1fb8f	0.41012236
199	0x3e724e2d	0.23662634
200	0x3e899b2e	0.26876205
201	0x3e87f8de	0.26557058
202	0x3e0d3e0f	0.13793205
203	0xbdd065ef	-0.10175692
204	0xbe4440c7	-0.19165336
205	0xbd8582a3	-0.065190576
206	0x3b7b7264	0.0038367743
207	0xbea1f858	-0.31634784
208	0xbe75a3a4	-0.23988205
209	0xbef12875	-0.4710118
210	0xbe9f59fb	-0.31123337
211	0xbefe357e	-0.49650186
212	0xbec4655e	-0.38358587
213	0xbed661d7	-0.4187152
214	0xbe23b2cf	-0.15986179
215	0xbf04b774	-0.5184243
216	0xbe5fc89f	-0.21853875
217	0xbe2e88e8	-0.17044413
218	0x3d3e9f52	0.04653866
219	0x3d9a771e	0.07542251
220	0xbcb3355d	-0.021876032
221	0xbe5bb7c0	-0.21456814
222	0x3e355cd6	0.17711195
223	0x3db5f4a0	0.08884549
224	0x3e9dcd70	0.308208
225	0xbdb6e5c8	-0.08930546
226	0x3e256de1	0.16155197
227	0x3e625623	0.22103171
228	0x3eaefcfb	0.34177384
229	0xbd579a7e	-0.05263757
230	0x3cd8421c	0.02639871
231	0x3db64a93	0.08900943
232	0x3e03bc0e	0.12864706
233	0x3ed5efec	0.41784608
234	0x3eeb07ef	0.4590449
235	0xbda50b46	-0.08058791
236	0xbd85e6d8	-0.065381706
237	0xbdd72459	-0.1050498
238	0x3e0f66b4	0.14004022
239	0x3ee3044e	0.44339222
240	0xbea429a1	-0.3206301
241	0xbe9973bf	-0.2997112
242	0xbe380c27	-0.17973386
243	0xbe24aba7	-0.16081105
244	0x3e8771fd	0.26454154
245	0xbdc9367c	-0.09824845
246	0xbe44b65b	-0.19210188
247	0xbebbd40b	-0.36685213
248	0xbe5d37c3	-0.21603303
249	0x3c8c4aa9	0.017125444

conv1.bias f4 [10]
0	0x3dbd40a5	0.092408456
1	0x3d1dc9d1	0.038522545
2	0x3e3f26c3	0.1866713
3	0x3e8ba819	0.27276686
4	0x3cfaf2d5	0.03063337
5	0xbd783f2b	-0.060607117
6	0x3e9e755f	0.30948922
7	0x3e50463d	0.20339294
8	0x3e909095	0.28235307
9	0x3e7443ff	0.23854063

conv2.weight f4 [20, 10, 5, 5]
0	0xbc93bc2d	-0.018034065
1	0x3ccb00b6	0.024780612
2	0xbb572fa4	-0.0032834793
3	0x3d823c44	0.06359151
4	0xbd2a1f5c	-0.041533813
5	0xbd8b41c6	-0.06799655
6	0x3d253b58	0.040339798
7	0xbd9ec4f7	-0.07752412
8	0xbdd03d09	-0.101678915
9	0xbdccd1a2	-0.10000922
10	0x3c571852	0.013128357
11	0x3d5d4fb8	0.054031104
12	0xbd80f2e2	-0.06296326
13	0xbdc029a5	-0.09382943
14	0xbde02467	-0.10944443
15	0x3cf9356e	0.030420985
16	0x3d49505e	0.04914891
17	0x3c9cdfbb	0.019149652
18	0xbd57c4ba	-0.052677847
19	0xbd175fb2	-0.036956497
20	0x3d4a4f9b	0.049392324
21	0x3ce5bba3	0.028043574
22	0x3db60f61	0.08889652
23	0x3df304fc	0.11866185
24	0x3d907027	0.07052641
25	0x3d037c79	0.03210113
26	0xbdddf90c	-0.108385175
27	0xbd00ac1a	-0.03141413
28	0x3bd3d1fe	0.006464242
29	0xbc01a5c5	-0.007913058
30	0xbd7a0c53	-0.06104691
31	0xbdc69551	-0.096964486
32	0xbdab6050	-0.083679795
33	0x3b769c1f	0.0037629677
34	0xbd6583c0	-0.05603385
35	0x3c22e15f	0.009941428
36	0xbd80b437	-0.06284373
37	0xbda14fda	-0.078765586
38	0xbd4d7183	-0.05015708
39	0x3d96f3ce	0.07370721
40	0xbd213cff	-0.03936481
41	0xbc5c883c	-0.013460215
42	0x3cb1726f	0.021661012
43	0x3dbeb1c8	0.09311253
44	0x3d2150e5	0.039383788
45	0xbd3d2858	-0.046181053
46	0xbdad5248	-0.084629595
47	0xbcfe9efd	-0.03108167
48	0x3b252acf	0.0025202518
49	0x3c8d6ffd	0.017265314
50	0xbcf16676	-0.029467802
51	0xbd7b4966	-0.061349295
52	0x3c9823b7	0.018571718
53	0xbdbfef98	-0.09371871
54	0xbd5f4a4d	-0.054514218
55	0xbd2ff629	-0.042959366
56	0xbd90ca58	-0.07069844
57	0x3d0227a3	0.03177608
58	0xbd61e959	-0.05515418
59	0xbd7f2640	-0.062292337
60	0x3d6c526c	0.05769579
61	0x3d0db09c	0.034592256
62	0x3de20a4b	0.110371195
63	0x3d1522f4	0.036410287
64	0xbcb736fd	-0.022365088
65	0x3e12e3cb	0.14344709
66	0x3dbfc6e2	0.09364106
67	0x3d1aa4f8	0.037754983
68	0x3da1954b	0.078898035
69	0xbc7f8a8a	-0.015596995
70	0x3d9cfec5	0.07665781
71	0x3dcdf572	0.100565806
72	0x3d3ed019	0.046585176
73	0x3c94ea28	0.01817806
74	0x3cc47265	0.023980329
75	0x3d80c794	0.062880665
76	0xbe058e7c	-0.13042635
77	0xbdeb50f7	-0.11490052
78	0x3dd46bb6	0.10372107
79	0x3d792c73	0.060833406
80	0x3d825060	0.063629866
81	0xbd4ab7f3	-0.049491834
82	0x3b9ee65f	0.0048492397
83	0x3d16c636	0.036810122
84	0x3d102130	0.0351879
85	0x3d801663	0.0625427
86	0xbdb1528e	-0.08658324
87	0x3b3efaa7	0.00291411
88	0x3ba18a87	0.004929844
89	0x3d590fae	0.05299347
90	0xbe04dbcd	-0.12974472
91	0x3ca61779	0.020274865
92	0x3d9b80fe	0.07592963
93	0x3e1b8f9d	0.15191503
94	0x3d964d2c	0.07338938
95	0xbe15bf6b	-0.14623801
96	0x3d6d12ce	0.05787926
97	0x3afaf14d	0.00191454
98	0x3dea5539	0.11442036
99	0xbcb66967	-0.022267057
100	0x3c17ec7d	0.009272692
101	0xbe2873fa	-0.16450492
102	0xbde78bff	-0.11305999
103	0xbc407296	-0.011746069
104	0x3c9444db	0.01809924
105	0xbe2af233	-0.16693954
106	0xbe41eeca	-0.18938747
107	0xbd9270f3	-0.071504496
108	0x3d9190f1	0.071077235
109	0x3da5589b	0.08073541
110	0xbcb33783	-0.021877056
111	0xbd1a6d44	-0.03770186
112	0xbce4a5d2	-0.0279111
113	0x3dea1730	0.11430204
114	0xbd25069f	-0.040289517
115	0x3b7816eb	0.0037855457
116	0xbd77192f	-0.06032675
117	0x3c18e488	0.00933183
118	0xbdc6b1f7	-0.09701913
119	0xbe21211f	-0.15735291
120	0x3dab355b	0.08359786
121	0x3dd507ba	0.10401864
122	0x3dccb6ac	0.099957794
123	0x3d914b00	0.07094383
124	0xbe05e30c	-0.13074893
125	0x3dfab10e	0.12240802
126	0x3d360855	0.04444154
127	0xbdde2bc6	-0.10848193
128	0xbd99adfd	-0.07503889
129	0xbe4422dc	-0.19153923
130	0x3da7d878	0.08195585
131	0x3cf1b636	0.02950583
132	0x3d6a7c47	0.057247426
133	0x3d979f01	0.074033745
134	0x3d25a837	0.040443625
135	0x3b156aec	0.0022799326
136	0xbd2b35fa	-0.041799523
137	0x3ced2dce	0.028952505
138	0x3db0f1d1	0.08639873
139	0x3df60f9a	0.120146945
140	0xbce502cb	-0.027955433
141	0x3c8ce215	0.017197648
142	0x3ce9df5b	0.028548887
143	0x3d7a03a4	0.06103863
144	0xbd5357d1	-0.05159742
145	0xbe225ffe	-0.1585693
146	0xbd7818be	-0.06057047
147	0x3c058f84	0.008151893
148	0x3d96d26d	0.07364354
149	0xbe092369	-0.13392414
150	0x3d7b9e53	0.061430287
151	0x3d4e9d81	0.050443176
152	0x3c41ce73	0.0118290065
153	0x3d4045b5	0.046941478
154	0xbd32d342	-0.043658502
155	0x3d9abe78	0.0755586
156	0x3d865f70	0.06561172
157	0xbd477e4d	-0.048704434
158	0x3d8b476e	0.068007335
159	0xbcf4e914	-0.029896297
160	0xbd14e79d	-0.036353696
161	0x3c99f94c	0.018795632
162	0x3d216253	0.03940041
163	0xbd4fef71	-0.05076546
164	0xbd492275	-0.049105126
165	0xbcdca2e1	-0.026933135
166	0xbd7530ec	-0.05986111
167	0xbd94290b	-0.07234391
168	0xbbb897e6	-0.005633342
169	0xbdb27eb9	-0.08715577
170	0xbd54d434	-0.051960185
171	0xbde0d248	-0.10977608
172	0x3b022a49	0.001986163
173	0x3d902921	0.07039095
174	0x39e0dc7e	0.0004288889
175	0xbe021bee	-0.12705967
176	0xbde11663	-0.10990598
177	0xbd6453c9	-0.055743966
178	0x3dc6eda1	0.09713293
179	0x3e4a9fb9	0.19787492
180	0xbe3883d9	-0.18019046
181	0xbdbe1b7c	-0.09282586
182	0x3da64504	0.081186324
183	0x3e0adfca	0.13561931
184	0x3e2b8ba4	0.16752487
185	0xbd39d23d	-0.045366514
186	0xbe03defd	-0.12878032
187	0xbd091b39	-0.033473227
188	0x3deb3de6	0.114864156
189	0x3e019511	0.1265452
190	0xbd9d4d8d	-0.07680807
191	0x3c4e5c32	0.012595223
192	0x3e063888	0.13107502
193	0x3e378648	0.17922318
194	0x3dd6a392	0.10480417
195	0xbd896334	-0.067083746
196	0x3d8ab388	0.06772524
197	0x3d9753c9	0.073890276
198	0x3d2f0332	0.042727657
199	0xbe56599f	-0.20932625
200	0xbe5221d0	-0.20520711
201	0xbe51d1cf	-0.20490192
202	0xbdb64e88	-0.089016974
203	0xbde5d623	-0.11222484
204	0x3d133b21	0.03594506
205	0xbce802ee	-0.02832171
206	0xbe152437	-0.14564596
207	0xbdae6232	-0.08514823
208	0xbd2e2a32	-0.04252071
209	0xbd21595d	-0.039391864
210	0x3d47698a	0.048684634
211	0xbdb672d4	-0.089086205
212	0xbc82dcae	-0.015974369
213	0x3bbcec37	0.0057654637
214	0xbdcb93b2	-0.0994028
215	0x3d917056	0.071015045
216	0xbc16da2e	-0.0092072915
217	0x3c82f575	0.015986184
218	0xbd3b2b77	-0.04569575
219	0xbcfbc753	-0.030734694
220	0x3c867a19	0.016415643
221	0x3e0af231	0.13568951
222	0x3d9d52d9	0.076818176
223	0x3d85826c	0.065190166
224	0x3d7aac70	0.061199605
225	0x3e6fc1dd	0.23413797
226	0x3e05dbeb	0.13072173
227	0xbc69ef72	-0.01427828
228	0xbd4ba293	-0.04971559
229	0xbe3f66fa	-0.18691626
230	0x3e5308e2	0.20608857
231	0x3db01081	0.08596898
232	0x3c7a2078	0.01526653
233	0x3e0f3dcf	0.13988422
234	0x3d342e62	0.043989547
235	0x3d24b174	0.040208295
236	0x3dfcd793	0.12345805
237	0x3da3b6e8	0.07993871
238	0x3da4ae79	0.080410905
239	0x3dd07149	0.101778574
240	0x3c48c13a	0.0122531
241	0xbc3a962c	-0.011388343
242	0x3e12f926	0.14352855
243	0x3c16fb0d	0.009215129
244	0xbcdd7c4a	-0.027036805
245	0xbe006466	-0.12538299
246	0xbdddb680	-0.10825825
247	0xbd8fe476	-0.07025997
248	0xbd8c4622	-0.06849314
249	0xbdd26a9b	-0.1027424
250	0xbd874653	-0.0660521
251	0x3b6d8be0	0.0036246702
252	0x3d3b00da	0.04565511
253	0xbc29898d	-0.010347736
254	0x3cbafdd5	0.022826115
255	0xbe247617	-0.16060673

conv2.bias f4 [20]
0	0xbcacfda2	-0.021117035
1	0x3b269e62	0.0025423993
2	0x3cbf70fc	0.023369305
3	0xbd06ea0b	-0.032938045
4	0x3c4ecbdb	0.012621845
5	0x3b8f896c	0.0043803956
6	0xbdb83439	-0.08994336
7	0xbc99d2cc	-0.018777274
8	0x3d05e379	0.032687638
9	0xbd5149df	-0.05109584
10	0xbd4b4e2a	-0.04963509
11	0x3d68704d	0.056747723
12	0xbd9e0b89	-0.07717044
13	0x3dad7a02	0.08470537
14	0x3da30f64	0.0796192
15	0xbb9f258b	-0.0048567704
16	0xbb9416df	-0.004519328
17	0xbcecf751	-0.028926523
18	0x3d9b5817	0.07585161
19	0x3d662668	0.05618897

fc1.weight f4 [50, 320]
0	0xbd483cab	-0.048885982
1	0xbd24c486	-0.04022648
2	0xbc818f0f	-0.015815286
3	0xbbd146fb	-0.0063866354
4	0xbc02c312	-0.007981079
5	0xbca8f516	-0.020624679
6	0xbc6e6785	-0.014551048
7	0x3db8eaec	0.09029183
8	0xbc890d53	-0.016729986
9	0xbc2ba25e	-0.010475723
10	0x3be04494	0.0068441126
11	0x3bdeb830	0.006796859
12	0xbd76e7c8	-0.060279638
13	0x3cf68346	0.030091893
14	0xbd59bc8d	-0.05315833
15	0xbcd493e7	-0.025949432
16	0x3c037c26	0.008025205
17	0xbd605119	-0.05476484
18	0x3d10ddc6	0.03536775
19	0x3d480a89	0.048838172
20	0xbd86ca6e	-0.06581579
21	0xbd8d18cb	-0.068894945
22	0x3df98713	0.121839665
23	0xbc625404	-0.013813976
24	0xbcacf145	-0.02111114
25	0xbd80842e	-0.06275211
26	0x3d214062	0.03936804
27	0x3d7e76ae	0.0621249
28	0xbd973371	-0.073828585
29	0xbdc3d574	-0.09562197
30	0x3d713d15	0.058896143
31	0x3d938af0	0.072042346
32	0xbcdafbd6	-0.026731413
33	0xbd321934	-0.043481067
34	0x3d0a171c	0.033713445
35	0x3d017707	0.031607654
36	0x3d7c13e6	0.061542414
37	0x3b5393a7	0.0032284053
38	0x3c914373	0.017732358
39	0xbbed8576	-0.007248576
40	0xbc93dcb9	-0.018049585
41	0xbd248e90	-0.04017502
42	0xbc6dc87a	-0.014513129
43	0x3ce4b018	0.027916
44	0xbdb00081	-0.08593846
45	0x3bdd913c	0.006761698
46	0x3d20c89b	0.039253812
47	0xbdd696c4	-0.10477975
48	0xbd1140ba	-0.03546212
49	0x3d30b4c9	0.04314116
50	0x3d2c1b7a	0.04201839
51	0x3dd18253	0.102299355
52	0x3c63b0ae	0.013897104
53	0xbd4ee5cf	-0.05051213
54	0xbd24bd2f	-0.040219482
55	0x3d03ff3c	0.032225832
56	0xbdbd3b9c	-0.09239885
57	0xbd3b4f25	-0.045729775
58	0x3c695b37	0.014242939
59	0x3ac06397	0.0014678118
60	0x3d74ea29	0.059793625
61	0x3c4e5a4b	0.01259477
62	0x3d7cc467	0.06171074
63	0xbd928a2c	-0.071552604
64	0xbdb385a4	-0.08765724
65	0x3cd39ebc	0.025832526
66	0x3aa3b302	0.0012489262
67	0x3cdf1b56	0.027234714
68	0x3d0b6287	0.03402951
69	0xbc1bb9f6	-0.009504786
70	0x3d13913d	0.036027182
71	0xbc98d093	-0.018654143
72	0xbad1ccb9	-0.0016006447
73	0xbc445f5f	-0.011985629
74	0xbcfa234f	-0.030534415
75	0xbd7cb9c1	-0.061700586
76	0xbbbe3dfa	-0.005805728
77	0xbcaec68f	-0.021334914
78	0xbd4169dc	-0.047220096
79	0xbb12af5e	-0.002238236
80	0x3dbdc66f	0.09266364
81	0x3d742aff	0.059611317
82	0x3d582f37	0.052779403
83	0x3c9fc659	0.01950376
84	0x3d0a2c9c	0.03373395
85	0x3c83602b	0.016037067
86	0xbd31b034	-0.04338093
87	0xbdcd1083	-0.10012915
88	0x3c0d46dd	0.008622852
89	0x3ccdee32	0.025137994
90	0x3d5e37df	0.0542525
91	0xbd53a95b	-0.05167518
92	0x3ba50654	0.0050361548
93	0x3d2e222f	0.04251307
94	0x3b8bb66f	0.004263691
95	0xbd9cbd7e	-0.0765333
96	0x3cfef89c	0.031124406
97	0x3dc63a00	0.09679031
98	0x3cb5ed2a	0.022207815
99	0xbd4b94e1	-0.04970253
100	0xbdecbf77	-0.115599565
101	0xbd37cd4b	-0.044873517
102	0x3b70bfe2	0.0036735465
103	0xbc5f617c	-0.013634082
104	0xbc8c79fd	-0.017148012
105	0xbd081b47	-0.03322914
106	0x3ca0da71	0.019635411
107	0xbc5562b3	-0.01302402
108	0xbd7da308	-0.061923057
109	0xbd94f912	-0.07274069
110	0xbd4c4680	-0.04987192
111	0x3db074bb	0.086160146
112	0xbe0e909e	-0.13922355
113	0xbb700c01	-0.0036628249
114	0x3cca44f3	0.02469108
115	0x3d9720a0	0.073792696
116	0xbc10e782	-0.008844258
117	0xbd03bd8d	-0.03216319
118	0xbdc9e9ce	-0.09859048
119	0xbd2db8f5	-0.042412717
120	0x3d1063a6	0.035251282
121	0xbd883810	-0.06651318
122	0xbd52be74	-0.05145116
123	0xbc99ae0c	-0.01875975
124	0xbd31fe0f	-0.04345518
125	0x3d8a5f7e	0.06756495
126	0x3d640268	0.055666357
127	0xbb3619a8	-0.0027786288
128	0x3c80976f	0.01569721
129	0x3d23ddcb	0.04000644
130	0x3e0af687	0.13570605
131	0x3d463935	0.0483944
132	0xbd7c7979	-0.061639283
133	0xbd4cd922	-0.05001176
134	0xbdba7f08	-0.091062605
135	0x3d860a00	0.06544876
136	0xbc912989	-0.01772
137	0x3cb096fd	0.021556372
138	0x3ddbc23a	0.10730405
139	0x3dc87ce8	0.09789449
140	0x3cbeb44d	0.023279333
141	0xbdf8d8ce	-0.12150727
142	0x3b86eb06	0.0041173724
143	0x3d332e46	0.0437453
144	0xbe21a238	-0.15784538
145	0xbbfb8d23	-0.007676737
146	0x3d00488e	0.031319194
147	0x3e3ef3c3	0.18647675
148	0xbd730a23	-0.05933584
149	0x39c277f6	0.0003709194
150	0xbba39854	-0.004992524
151	0x3d15a0e1	0.03653038
152	0xbdc90441	-0.098152645
153	0xbb960e48	-0.004579339
154	0x3cc5d6ab	0.024150213
155	0x3ad2a4e1	0.0016070866
156	0xbdcfc129	-0.10144264
157	0x3d6c9825	0.057762284
158	0x3d47829b	0.04870854
159	0xbdbe7d9d	-0.093013026
160	0x3cf1e37e	0.029527422
161	0xbd3c3b24	-0.04595484
162	0xbc512b77	-0.0127667105
163	0x3df72eef	0.12069499
164	0xbcdeac3a	-0.027181733
165	0x3cbd1e45	0.023085723
166	0xbcaeec18	-0.021352813
167	0x3d881bc5	0.066459216
168	0xbcdc84ab	-0.02691873
169	0xbcbefa43	-0.023312693
170	0xbcbff689	-0.023432987
171	0xbda074fe	-0.078348145
172	0x3bcd20d7	0.0062600183
173	0x3d243b15	0.040095408
174	0x3c965941	0.018353106
175	0xbd62b11c	-0.055344686
176	0x3d8f13b8	0.06986183
177	0x3dbaf30f	0.09128391
178	0x3df492d2	0.11942066
179	0x3cb349f9	0.021885859
180	0x3a8e6b9e	0.0010865813
181	0x3d913089	0.070893355
182	0xbd835b6b	-0.06413921
183	0xbd838de3	-0.06423547
184	0xbd1fca87	-0.039011505
185	0x3d500c78	0.05079314
186	0xbc8ac048	-0.01693739
187	0xbe04b5b6	-0.12959942
188	0xbd3f5bc2	-0.046718366
189	0x3b231f36	0.002489043
190	0x3e0b4def	0.13603948
191	0x3ab00608	0.0013429532
192	0xbcb18550	-0.021670014
193	0x3c9a13a2	0.01880819
194	0x3cb05eda	0.021529604
195	0x3de85275	0.113438524
196	0xbdd6f837	-0.10496562
197	0x3d177baf	0.03698319
198	0x3cd11174	0.025521018
199	0x3dc5a712	0.09651007
200	0xbd92d473	-0.07169428
201	0xb9cde72c	-0.00039272883
202	0xbdab388e	-0.08360396
203	0x3c82d64c	0.015971325
204	0x3a1d0fa7	0.0005991407
205	0xbd8af711	-0.067854054
206	0x3da0e71f	0.07856583
207	0xbc0f0714	-0.008729715
208	0x3cd8874d	0.026431704
209	0x3c0634de	0.008191315
210	0xbcace348	-0.02110447
211	0xbda24650	-0.07923567
212	0x3cbd84f6	0.02313469
213	0x3d1ba378	0.037997693
214	0xbd3211bb	-0.04347394
215	0xbc800041	-0.015625121
216	0x3a9167de	0.0011093577
217	0x3d9af9f4	0.07567206
218	0x3d1ef01a	0.038803197
219	0x3b5dd291	0.0033847431
220	0x3d8b0beb	0.067893825
221	0xbc3ae924	-0.011408124
222	0xbd960441	-0.0732503
223	0x3d71e428	0.059055477
224	0x3d8b5771	0.068037875
225	0x3dcbcf7d	0.099516846
226	0x3d91d802	0.07121278
227	0xbc8a7e0f	-0.016905813
228	0xbc9951ec	-0.018715821
229	0xbb0e1ed6	-0.002168586
230	0xbd2287e2	-0.03968037
231	0xbda737ea	-0.08164962
232	0x3d1b9142	0.037980326
233	0x3d7dd435	0.061969955
234	0x3de40d1b	0.11135312
235	0xbd9f6eed	-0.07784829
236	0x3dd04762	0.10169865
237	0xbc4b5b5e	-0.01241192
238	0xbcf6d131	-0.030129047
239	0x3da32ce4	0.079675466
240	0xbdd8153c	-0.10550925
241	0xbd4bb087	-0.049728896
242	0x3d4e8f53	0.050429653
243	0x3cc2feb7	0.023803098
244	0xbda1d5ba	-0.07902093
245	0xbc38136f	-0.011235102
246	0x3d0e8562	0.034795173
247	0x3d49a7cc	0.04923229
248	0xbd77416a	-0.060365118
249	0x3c83bf28	0.016082361
250	0x3ca03e79	0.01956104
251	0x3ca6a8b8	0.020344123
252	0xbd1f81cd	-0.038942147
253	0x3d9afa00	0.07567215
254	0x3d84a841	0.064774044
255	0x3be00c37	0.0068373936

fc1.bias f4 [50]
0	0x3dd97461	0.10617901
1	0x3d8fbffe	0.070190415
2	0x3d8148fe	0.0631275
3	0xbb32e8db	-0.0027299437
4	0xbc609072	-0.013706313
5	0x3da4383b	0.080185376
6	0x3d4ca059	0.049957607
7	0xbbc46b4d	-0.0059942366
8	0x3d8945a4	0.06702736
9	0x3c98c7e3	0.01865
10	0x3dd3d1c5	0.10342745
11	0x3d133bc4	0.03594567
12	0x3e08b8df	0.13351773
13	0x3db127ea	0.08650191
14	0x3db8e77d	0.09028528
15	0x3ad7771a	0.0016438693
16	0x3c9b6a51	0.018971594
17	0x3cb5429a	0.022126485
18	0x3e1d339d	0.1535172
19	0x3d5b35ec	0.05351822
20	0x3a67c20f	0.00088408677
21	0x3dc29dfe	0.09502791
22	0x3d62b510	0.055348456
23	0x3d8667dc	0.06562778
24	0x3d8a1dd0	0.067439675
25	0x3d81d334	0.06339112
26	0xbd2a46b4	-0.041571334
27	0x3d695ffb	0.0569763
28	0xbc28d2d5	-0.0103041725
29	0x3e015d34	0.1263321
30	0x3ce34116	0.027740996
31	0xbc1c07f3	-0.00952338
32	0x3d9ecf3b	0.0775437
33	0x3c009f21	0.007850439
34	0x3c4e7d78	0.012603156
35	0x3e04e580	0.12978172
36	0xbd2be189	-0.041963134
37	0x3dd34e9e	0.103177294
38	0x3d8a4f73	0.06753435
39	0x3d146246	0.036226533
40	0x3e41451f	0.18874024
41	0xbc23b36f	-0.009991511
42	0x3cbb67a8	0.022876576
43	0x3e3496ab	0.176356
44	0x3d147237	0.036241736
45	0x3e0c054a	0.13673893
46	0x3e1c31ea	0.15253416
47	0x3d041611	0.032247607
48	0x3dfaa3a5	0.12238244
49	0x3dca81ef	0.09888064

fc2.weight f4 [10, 50]
0	0x3e144ba0	0.14481974
1	0xbe722f1a	-0.2365078
2	0xbeac36d0	-0.3363557
3	0xbec7ee76	-0.3904912
4	0xbe151d48	-0.14561951
5	0xbe9898d2	-0.29804093
6	0x3e136c24	0.14396721
7	0x3dc67058	0.096893966
8	0xbe9bb388	-0.3041041
9	0xbdcd13c8	-0.100135386
10	0xbe8fb55b	-0.2806805
11	0xbe1abb44	-0.15110499
12	0x3e2e1ae4	0.17002445
13	0x3cad07f4	0.021121956
14	0x3d6be828	0.05759445
15	0xbe120436	-0.14259419
16	0x3d610b12	0.054942198
17	0x3ded1537	0.11576312
18	0xbe4d35a7	-0.20039998
19	0xbe76650b	-0.24061982
20	0x3d235f36	0.039885722
21	0x3e25fdde	0.16210124
22	0x3ca5da2f	0.02024564
23	0xbe8c87b9	-0.27447298
24	0xbead72ee	-0.33876747
25	0xbe6b6dbe	-0.22991082
26	0xbec72c5e	-0.38901037
27	0xbec502e4	-0.38478768
28	0x3dc1fef6	0.09472458
29	0xbe062c03	-0.13102727
30	0x3e148ba6	0.14506397
31	0xbe4fef3c	-0.20306104
32	0x3e0154b1	0.12629963
33	0xbe862d86	-0.26206607
34	0xbddc7b17	-0.10765665
35	0x3e3c5ea4	0.18395478
36	0x3e3922a4	0.1807962
37	0x3e6a6e24	0.22893578
38	0xbeb33b78	-0.3500631
39	0x3db8877b	0.09010216
40	0xbe6e8a3d	-0.23294921
41	0xbea65c6b	-0.32492384
42	0x3de654af	0.11246621
43	0xbeb24bdc	-0.348235
44	0x3dc1daa8	0.094655335
45	0xbe4774b1	-0.19478108
46	0xbe1f40c7	-0.15552054
47	0x3e5a5f1f	0.21325348
48	0xbe9bff09	-0.30468014
49	0x3df37e1c	0.11889288
50	0x3e11ea17	0.14249454
51	0xbe6287f2	-0.22122172
52	0xbe11f620	-0.14254045
53	0xbd8a8adb	-0.06764766
54	0xbe958a3f	-0.29207036
55	0x3e84263a	0.25810415
56	0xbe5384ac	-0.20656079
57	0xbe80a678	-0.25127006
58	0x3d93d94d	0.07219181
59	0xbe79469b	-0.2434334
60	0x3e8cf112	0.27527672
61	0xbec767ae	-0.3894629
62	0x3e2ab0ac	0.16668957
63	0xbe906e5d	-0.282092
64	0x3dbb7fff	0.09155273
65	0xbe93173c	-0.28728664
66	0xbd8479bd	-0.06468532
67	0xbef011f8	-0.4688871
68	0x3ddad15d	0.10684464
69	0x3e33b58b	0.17549722
70	0xbd4dfc31	-0.050289337
71	0xbe97c8f9	-0.29645517
72	0xbda7a8a9	-0.08186466
73	0x3d8f7ae9	0.07005865
74	0xbceae698	-0.028674409
75	0x3dba8d79	0.09109015
76	0xbe92a297	-0.2863967
77	0x3e393f4a	0.18090549
78	0xbece0842	-0.40240675
79	0x3e2cf5a8	0.16890585
80	0xbe434437	-0.1906899
81	0xbe27cff7	-0.16387926
82	0x3de21090	0.11038315
83	0xbeb10a39	-0.34578112
84	0xbe71181e	-0.23544356
85	0x3e4a0ca1	0.1973138
86	0xbe973efa	-0.29540235
87	0xbe695c19	-0.22789039
88	0x3df43a9b	0.119252406
89	0xbe48d3f3	-0.19612102
90	0x3e0d6ebf	0.13811778
91	0xbd7234b7	-0.059132304
92	0xbe8501b3	-0.2597786
93	0x3e22bcf8	0.15892398
94	0x3d056225	0.0325643
95	0x3dde7ddb	0.10863849
96	0x3e165a38	0.14682853
97	0xbead8720	-0.33892155
98	0x3da5661d	0.08076117
99	0xbe69ccc8	-0.22832024
100	0xbe8ad4c4	-0.27115452
101	0xbe0df7a2	-0.13863996
102	0xbe36c686	-0.17849168
103	0x3dfeddac	0.12444624
104	0x3dbb52f0	0.091466784
105	0xbe9a947e	-0.30191416
106	0x3e2fe4da	0.17177144
107	0xbdff33b0	-0.124610305
108	0xbe29b777	-0.16573893
109	0xbe09cb08	-0.13456357
110	0x3d07923c	0.033098444
111	0xbe23c725	-0.15993936
112	0x3e29a801	0.16567995
113	0x3d778c67	0.060436632
114	0x3dd59c40	0.10430193
115	0xbe4ae3dd	-0.19813485
116	0x3da40450	0.08008635
117	0xbe114d3f	-0.14189623
118	0x3e02f41b	0.12788431
119	0xbe124269	-0.14283146
120	0x3db33d31	0.08751906
121	0xbd805b17	-0.06267374
122	0xbe52d690	-0.20589662
123	0x3dca4325	0.09876088
124	0xbe23bff4	-0.15991193
125	0xbe5e1547	-0.21687804
126	0xbdd25c94	-0.10271564
127	0xbe207f62	-0.15673593
128	0x3d709c94	0.058743075
129	0x3e2eec44	0.17082316
130	0xbe34ef95	-0.17669518
131	0x3e5a7bf5	0.21336348
132	0xbec26dcb	-0.3797439
133	0x3d1641dc	0.036683902
134	0xbea3a4d9	-0.31961706
135	0xbdb3f299	-0.08786506
136	0x3e323675	0.17403586
137	0xbc8781ef	-0.01654145
138	0x3deb4446	0.114876315
139	0x3df57f88	0.11987215
140	0xbe900b4c	-0.2813362
141	0x3df2d0ec	0.11856255
142	0xbe5147bc	-0.2043752
143	0xbe65a198	-0.22424924
144	0xbd39ce22	-0.0453626
145	0x3db23fa0	0.08703542
146	0xbe2d5177	-0.16925608
147	0xbe53416e	-0.20630428
148	0x3df4cfac	0.11953673
149	0xbe049294	-0.1294654
150	0xbe8e3bab	-0.27779898
151	0xbe5943b1	-0.21217228
152	0x3da98d8e	0.082789525
153	0x3e08ed68	0.13371813
154	0xbe494ba4	-0.19657761
155	0xbdf742bc	-0.120732754
156	0xbe54197d	-0.20712848
157	0x3db831d0	0.08993876
158	0x3e28292b	0.16421954
159	0xbddc1f97	-0.10748213
160	0xbebe1761	-0.37127212
161	0x3e18c228	0.14917815
162	0xbe6737ce	-0.22579882
163	0xbe2efa9c	-0.17087787
164	0x3db659de	0.089038596
165	0x3e31a007	0.17346202
166	0x3da4bf86	0.08044343
167	0x3e464e62	0.19365838
168	0x3c28141e	0.010258703
169	0xbe143ada	-0.14475575
170	0x3dcef4f0	0.10105312
171	0xbd89538a	-0.06705387
172	0xbeae80cf	-0.34082648
173	0xbdd7f83e	-0.10545395
174	0xbe3ce7a0	-0.18447733
175	0x3e22f3c5	0.15913303
176	0xbe3c4f0c	-0.18389529
177	0x3e22227a	0.15833464
178	0xbe33f8ff	-0.17575453
179	0xbe213dac	-0.15746182
180	0xbe13dc8f	-0.14439605
181	0xbdc84761	-0.097792394
182	0xbe976e5b	-0.29576382
183	0xbdad02dc	-0.08447811
184	0xbdaa845b	-0.08326026
185	0xbe90001d	-0.28125086
186	0xbd33adae	-0.043866806
187	0xbe459b69	-0.19297566
188	0x3df8f5da	0.121562675
189	0x3dd95715	0.10612313
190	0xbe8500a3	-0.25977048
191	0x3e10813d	0.141118
192	0x3c96bc1d	0.018400246
193	0xbe483cd1	-0.1955445
194	0x3e03b37b	0.12861435
195	0xbe6af9b6	-0.2294682
196	0xbe995bed	-0.29952946
197	0xbe0fc1d5	-0.14038785
198	0xbd52c108	-0.05145362
199	0xbe95a7d7	-0.29229614
200	0xbe41e653	-0.18935518
201	0x3e079a02	0.13242343
202	0x3d9576f9	0.07298083
203	0xbeeb5b16	-0.4596793
204	0xbe8874e1	-0.26651672
205	0xbe1ee433	-0.15516739
206	0xbe396b59	-0.18107356
207	0xbea87b75	-0.3290669
208	0xbd97b05f	-0.07406687
209	0xbe4334c9	-0.19063105
210	0x3e913d4c	0.28367078
211	0x3dab761a	0.083721355
212	0xbd241189	-0.040055785
213	0x3da783f8	0.08179468
214	0x3dd25439	0.102699704
215	0xbe4240f8	-0.18970096
216	0xbea16879	-0.3152502
217	0x3dd86132	0.105654135
218	0xbd8a1d3b	-0.067438565
219	0x3e2d176a	0.16903463
220	0xbec7cfe4	-0.39025795
221	0xbe8dace5	-0.2767097
222	0x3e0db8b4	0.1383999
223	0xbe513e62	-0.20433953
224	0x3e366b70	0.17814422
225	0xbe201c72	-0.15635851
226	0x3e05c945	0.1306506
227	0xbc70244a	-0.0146570895
228	0x3d81077f	0.06300258
229	0x3e2e4a09	0.1702043
230	0xbe80f882	-0.25189596
231	0xbcba5668	-0.02274628
232	0xbe66f0b0	-0.22552752
233	0x3e1c533f	0.15266131
234	0xbe26fcb3	-0.16307335
235	0xbe27f122	-0.16400579
236	0xbe397b26	-0.18113384
237	0xbe31ddab	-0.17369716
238	0xbe78b402	-0.24287418
239	0x3da79cb2	0.08184184
240	0x3e07a9e7	0.13248406
241	0x3dbe36ba	0.09287782
242	0x3e02a95b	0.12759916
243	0x3e189f05	0.14904411
244	0xbea34b08	-0.31893182
245	0x3dbf7f13	0.09350409
246	0x3dfd61b0	0.12372148
247	0x3dc3e20d	0.095646
248	0xbc4d1b2c	-0.012518685
249	0x3e01ed6d	0.12688227
250	0x3e06a418	0.13148534
251	0xbe436b52	-0.19083908
252	0x3d853da8	0.065059006
253	0x3daefe69	0.08544619
254	0x3d8aabc7	0.06771045
255	0x3e66cb8d	0.22538586

fc2.bias f4 [10]
0	0x3e2b1593	0.16707449
1	0x3e958298	0.29201198
2	0xbcde4d51	-0.027136477
3	0x3e201fbe	0.15637109
4	0xbe900d57	-0.28135177
5	0xbe5a6822	-0.21328786
6	0x3d9a9461	0.07547832
7	0x3d94125c	0.07230064
8	0x3e12cdbf	0.14336298
9	0x3c00a15f	0.007850974
