model2.pth (torch, 90280 bytes, 8 tensors)

conv1.weight f4 [10, 1, 5, 5]
00000000: 6353 aabe e20f 6dbd ba8c 90bc 7346 87bc
00000010: 36ca 1a3e 0eb5 a0be 07b8 323b f3f7 8e3e
00000020: 334b 8c3e 3047 1ebd 0a2f b6be 7b16 fb3d
00000030: 24d3 f63e dc23 b13e af09 59be 74ed b2bd
00000040: 9f4d d03e ea26 cc3e 9dd5 4f3e 7472 fbbe
00000050: f03c 773d f283 b63e daae 393d e17a 3cbe
00000060: 3f97 b5be 1b81 4bbe 318a a73c 4ac5 05bd
00000070: b59f f73d a0cc 903e cbe0 593e 2137 4c3e
00000080: da5a c43e 4fc9 af3e 59e8 963e 9ad7 813e
00000090: 6cd1 5f3e 4ef9 7e3d ee2f 363e 1d7f dd3c
000000a0: 49b3 2dbd 0501 76bd e59f 9cbc 4a6e 8ebe
000000b0: 9757 a0be 1b98 95be 39e7 fabd 378b c9be
000000c0: 2130 44be a069 4abe c3dd 6f3e b55f 59be
000000d0: b5c7 f1bd e5e5 8cbd 5b7c 9fbe 8a7e 663e
000000e0: 1796 07be 5a35 3dbe 7c2d 93be 927a d9bd
000000f0: 3ea5 b63c 873b 0cbe ca84 85be 2e28 f6bd
00000100: ec9a b2be 0c9d 213e 126f 69be adc3 55be
00000110: d133 87be b146 45be eb74 83bd b76e f6bd
00000120: 3393 2dbe 1280 58be 48d1 23be 99c1 fb3d
00000130: 1e3e 18bc 3ffa d43d 3a30 b13e 8c02 1a3e
00000140: 6bd6 993e 1443 be3e ab9e d43e 009d 9a3e
00000150: e301 a3bd b1e4 163e 984a aa3d 5b62 97bc
00000160: b2fd 70be 5c71 803a cf8a fd3d e06b 373d
00000170: b46d 48be cf67 bcbe 157d 61be 0e1a 13be
00000180: a08a 9dbe eed0 9abe e473 ddbd 3cd5 b33d
00000190: 7b17 73be 431f afbe 1bee 29be 1ba7 c7bc
000001a0: 7396 19be 6802 0abe 3bab 0ebe 1590 77be
000001b0: 4f0f b3be 7b9a 6dbe ead5 8abd 7431 16bd
000001c0: e66b 2dbe e759 10bd b145 a3bd 6cdc c13e
000001d0: b4d1 163e 168b 4e3d 4985 b73e 5d3d 983e
000001e0: 669d c73e 0adf c63e f9df 443e e230 c93d
000001f0: 8f0e 0e3e 017f e93d 5e6b 6b3d 04b4 a33e
00000200: 8d1b a03e 8981 c03e 6637 cabd cb92 a03d
00000210: a017 ef3d 59fc 893d 8371 373e 154b fabe
00000220: 0dd0 cabe 5213 85be da0c 70be 1fea d9bd
00000230: c9d4 2abe 68fa 5cbe f42f dbbd 3f7b 23be
00000240: 2e82 843d 8358 3d3e 4437 a9bb 1af7 fcbd
00000250: a555 97bd 3f5e 96bd f3d3 08be a85c c9bc
00000260: 7490 b53d 8585 923e f6c6 2fbd a45c dcbe
00000270: fadd 80be 6d7b b5bd 85f6 a13e 9bda 793e
00000280: 1a38 debe 3afd ebbd 0b16 b13d 27bf b03e
00000290: 5a06 b33e d332 e8be 28db 95bc 928a 963c
000002a0: 57d3 623e 203e 943e bb9b 03be 9aef 81be
000002b0: c3fd 763e 5c10 bb3e 42e1 083e 99ae 80bc
000002c0: 38ae b4be 9318 a1bc 6077 bd3d 1aa3 703d
000002d0: 7b7f 4e3d 5b31 2b3e 0599 1d3e 3a64 5c3e
000002e0: 8bc0 6cbd 9cd1 7f3d 51da 523c db5a 77be
000002f0: 072c a9be 0293 4bbd a48a 56be ad57 3e3d
00000300: 734f 59be d061 acbe 0361 16be 55e7 503d
00000310: 1b98 e03d 0e1f a03e a917 ca3e 8eb7 643e
00000320: 61bf 7e3e 44a4 753e a95b c93d e3c8 fbbd
00000330: 3480 0ebe 8708 c1bd 9014 1bbc b64b 95be
00000340: 94e1 41be c2de d0be 5766 98be 611d debe
00000350: 8b4b 96be d736 bfbe 0b4e 2fbe 3838 e2be
00000360: bf31 2cbe 3baa 1bbe 0c27 af3c 7f61 3a3d
00000370: fec6 ff3c c126 4fbe 9876 103e 3e6c 5f3d
00000380: afe4 943e fce5 d2bd e74c 273e 72bd 5a3e
00000390: facb ad3e a951 3dbd 84fd b83c 7c75 b43d
000003a0: 8c93 f33d 575a c83e ba3d e03e 7ed6 aabd
000003b0: 68d2 79bd a312 d0bd 5e93 013e e09f d83e
000003c0: 41a6 a0be 1060 94be d3e5 10be fc57 0abe
000003d0: f636 833e 638c e2bd 3ecb 41be c0a6 acbe
000003e0: e1dc 4ebe f4f8 853b
-0.33266744 -0.057876475 -0.017645229 -0.016513085 0.151162 -0.31388134 0.0027270333 0.27923545
0.27401122 -0.03864211 -0.35582763 0.12260147 0.48207963 0.3459767 -0.211951 -0.08736697
0.4068422 0.3987344 0.20296331 -0.49110758 0.06036085 0.3564754 0.045332767 -0.1840625
-0.35466954 -0.19873469 0.020451637 -0.032658853 0.120910086 0.28281116 0.21277158 0.19942905
0.38350564 0.34333274 0.29474142 0.25359803 0.21857232 0.062249474 0.17791721 0.027038151
-0.042407308 -0.060059566 -0.019119212 -0.2781852 -0.31316826 -0.2921761 -0.122511335 -0.39364025
-0.19158985 -0.19766855 0.23424439 -0.21227916 -0.11805669 -0.068797864 -0.31149563 0.22509208
-0.13240848 -0.18477383 -0.2874564 -0.106190816 0.02229559 -0.13694583 -0.26077873 -0.120193824
-0.3488382 0.15782565 -0.22796276 -0.20875426 -0.2640672 -0.19265248 -0.06418785 -0.12032836
-0.16950683 -0.21142605 -0.15997803 0.12292785 -0.009292154 0.10399293 0.34607106 0.15040034
0.300464 0.37160552 0.41527304 0.30197906 -0.07959344 0.14735676 0.08315009 -0.018479517
-0.23534277 0.0009799409 0.12379991 0.044780612 -0.19573098 -0.3679795 -0.22020371 -0.14365408
-0.30769825 -0.30237526 -0.1081312 0.087809056 -0.23739426 -0.34203538 -0.16594736 -0.024371674
-0.14998798 -0.1347748 -0.13932507 -0.24176057 -0.34972617 -0.23203461 -0.06779082 -0.036668256
-0.16935691 -0.035241988 -0.07972277 0.3786348 0.14728433 0.05042561 0.35843876 0.29734316
0.38987273 0.3884204 0.19226064 0.09823777 0.13872741 0.11401177 0.05747544 0.3197328
0.3127102 0.37598827 -0.09873848 0.078404985 0.11674428 0.067375846 0.17914395 -0.48885408
-0.39611855 -0.25991303 -0.23442402 -0.10640358 -0.16682734 -0.21579897 -0.10702506 -0.15964983
0.06470142 0.18490796 -0.005164059 -0.123518184 -0.07389382 -0.07342195 -0.13362102 -0.024580315
0.08865443 0.28617492 -0.042914353 -0.4303943 -0.25169355 -0.08861432 0.31633392 0.24399798
-0.43402177 -0.115229085 0.086467825 0.34520838 0.34965783 -0.45351276 -0.018292978 0.018376622
0.22150932 0.28953648 -0.12852375 -0.25378114 0.2412024 0.3653592 0.13367179 -0.015708255
-0.35289168 -0.019665038 0.092512846 0.058749296 0.050414544 0.16718046 0.15390404 0.21522608
-0.05780081 0.06245576 0.0128694335 -0.24155752 -0.33041403 -0.049700744 -0.20951325 0.046470333
-0.21221714 -0.33668375 -0.14685445 0.051001865 0.10966512 0.31273693 0.39471176 0.22335646
0.24877693 0.23988444 0.09831936 -0.122941755 -0.13916093 -0.094254546 -0.009465352 -0.29159325
-0.18933707 -0.4079495 -0.2976558 -0.4338179 -0.2935451 -0.37346527 -0.17119615 -0.44183517
-0.16815852 -0.15201657 0.021380924 0.045503136 0.031222817 -0.20229627 0.1410774 0.054546587
0.29080722 -0.10297772 0.1633793 0.2136133 0.33944684 -0.046220455 0.022581823 0.08811471
0.11893377 0.39131424 0.43797094 -0.083416924 -0.060991675 -0.10159805 0.12653872 0.42309475
-0.31376842 -0.2897954 -0.14150171 -0.13510126 0.2562787 -0.11061933 -0.18925187 -0.3372097
-0.20201446 0.0040885154

conv1.bias f4 [10]
00000000: b57a b33d ae61 073d 6406 273e 8b6f 8c3e
00000010: f87c bb3c 8638 86bd ce6b a33e 85f0 4b3e
00000020: 5528 8a3e dda7 723e
0.08763639 0.03305214 0.16311032 0.2742885 0.022886738 -0.0655375 0.31918186 0.1991597
0.26983896 0.23696847

conv2.weight f4 [20, 10, 5, 5]
00000000: adf5 31bc 6d95 943c bed2 00bc d6f1 443d
00000010: 1e8d 39bd 02ec aabd 5861 ca3c 4694 b2bd
00000020: 5699 ebbd dc12 cbbd 84c0 ae3b fe6f 2d3d
00000030: 9616 5ebd 8cc1 bdbd d296 d6bd cce4 813c
00000040: e220 f63c 9818 dd3c 4d45 65bd 22cf 4ebd
00000050: 47ff 0b3d e831 2b3c e956 a03d 7619 d63d
00000060: 85ca 8f3d fc4c 0e3d 391f dcbd c517 01bd
00000070: 154c d63a 3fc3 21ba 6c2f 80bd 415f bcbd
00000080: 7f65 a1bd 2b7e cb3b 4ea1 60bd 7a44 6d3c
00000090: 7987 6cbd 818a 97bd dd51 51bd c8c2 923d
000000a0: a219 21bd c6f6 52bc 17d6 7c3c 806c ca3d
000000b0: d0ad 373d b416 d3bc 019a 8bbd b5de c5bc
000000c0: 2f6d 06bb f4eb 753c 6f6a ffbc 4373 80bd
000000d0: 0615 4a3c 80af b1bd 3dee 4fbd be26 42bd
000000e0: ac96 94bd 6798 033d 4899 2bbd a9fc 89bd
000000f0: e931 503d 3ebd d93c 9fa5 d53d 0ef7 253d
00000100: 6f1e d7bc 02c4 ec3d 647e b73d a835 2c3d
00000110: 105d 983d d845 08bd c52c 693d 7b57 b83d
00000120: 5067 453d 486c 613c 13a8 1bba 08fa 803d
00000130: 819f 01be 49c5 eebd 6167 cd3d f579 603d
00000140: 8dbd 503d 6c0e 5dbd 05f0 0c3c a88a 123d
00000150: 0bb8 0e3d 2c2e 443d c7a3 adbd 2cb2 da39
00000160: 104d 093c ed0a 493d f463 0bbe da17 ab3c
00000170: 6e08 883d 1650 173e 7d7c 9e3d caad 09be
00000180: 228a 6c3d 9888 d0bb 17b9 d23d 3ee1 14bd
00000190: ed86 483c f7f8 25be 32ad edbd ad49 3cbc
000001a0: 9a75 c53c de8f 24be 2f7e 3ebe b5d0 9dbd
000001b0: f190 843d 4cb8 9b3d eaad 14bd 377c 0fbd
000001c0: e928 06bd 049c ec3d 21e8 19bd 1bac 303c
000001d0: a35a 22bd ef7a e63b 9908 cdbd 3963 08be
000001e0: ebdc 8e3d 716d e53d db0e eb3d dbc3 b13d
000001f0: dc2d e4bd 306c d73d 5732 4a3d ed79 9ebd
00000200: 7cc7 6cbd d9df 23be 4a8e 933d b887 f43c
00000210: 681b 5c3d 6b70 8a3d 1f67 5f3d a566 c93b
00000220: 61de 29bd b515 973c bda1 ab3d e726 e03d
00000230: 1003 ec3b 2a92 e43c f32f fd3c bd06 8a3d
00000240: 6f88 22bd 9ae8 10be b4f7 20bd 233f 693c
00000250: ff60 843d 2816 e3bd 38ac 603d 53d8 3a3d
00000260: 7c0d 803c dce2 2a3d 5809 25bd 5e74 803d
00000270: 2a03 4c3d e3a9 22bd fdb0 8c3d e183 00bd
00000280: 3dae 4cbd c3c4 21bb c1e4 233d 55d3 3ebd
00000290: 1b51 42bd ece0 f9bc dac8 85bd 9988 9ebd
000002a0: f498 17bc 057a afbd d82a 4abd bce9 d0bd
000002b0: e4fa ccbb 8555 723d 41ba 1bbc 36b9 a8bd
000002c0: 5447 cdbd 7467 29bd 7833 d33d ad05 433e
000002d0: 6e5d 19be f185 a8bd 9f6d d93d 59fd 143e
000002e0: 6cbd 2b3e 137a 84bd 97ab f9bd 80ed f3bc
000002f0: 1406 d43d 53d6 d23d d6c2 32bd be75 ae3c
00000300: a4b4 0e3e b7b4 2b3e 9b57 cf3d 1af2 9ebd
00000310: bb87 a53d d7f8 8a3d bb3e 3a3d 5fbd 47be
00000320: 9bca 3fbe e1c4 3ebe f130 a4bd b843 dfbd
00000330: 7ab1 123d 1315 ddbc f9ed 03be 35d4 9abd
00000340: 21d8 cfbc 75e9 08bd 0e2c 333d 0d4c 9cbd
00000350: ebde d839 b354 cd3c 8675 ccbd cb38 9c3d
00000360: 7a98 39bb 6a67 fa3b 339b 61bd 1786 79bc
00000370: 4b5d 4e3c b314 fa3d d470 893d 215b 883d
00000380: b548 783d 39d2 603e 0f25 0b3e aef9 ccbb
00000390: eb01 56bd 3795 2cbe 4089 443e e0cd 973d
000003a0: e4cf 793c a32d 043e 5ebc 4f3d c4df 283d
000003b0: debc ea3d 932c 8c3d 6518 983d 4afc d73d
000003c0: c6ff b23c 5012 93bb a3a4 0b3e 8c78 1a3c
000003d0: f06f e2bb f893 cabd fd05 a9bd a7e8 84bd
000003e0: 71de 9fbd 1423 b9bd 6482 8bbd 39b1 053c
000003f0: 8dbb 433d 6974 5dbc 9187 893c f2e1 19be
-0.010861796 0.018137658 -0.007862745 0.048082195 -0.045300595 -0.08345796 0.02470462 -0.08719687
-0.11503856 -0.099157065 0.0053330082 0.042343132 -0.05422076 -0.09265432 -0.104779854 0.01585617
0.030044977 0.026989266 -0.055974294 -0.050490506 0.034179 0.01044891 0.07829077 0.10454075
0.070210494 0.034741387 -0.10748143 -0.03151681 0.0016349579 -0.00061707565 -0.06259045 -0.09197856
-0.07880687 0.0062101088 -0.054841332 0.014481658 -0.057746384 -0.073994644 -0.05110346 0.07166058
-0.039331086 -0.012876218 0.015431902 0.09883976 0.044843495 -0.025767662 -0.06816483 -0.024154047
-0.0020511856 0.015009869 -0.031178681 -0.062719844 0.012334114 -0.08676052 -0.05076431 -0.04740023
-0.07255301 0.032127764 -0.041894227 -0.06737644 0.050828848 0.026579496 0.1043198 0.040518813
-0.026259629 0.11560823 0.08959654 0.042043358 0.07439625 -0.033269733 0.05692746 0.090010606
0.04819423 0.013758726 -0.0005937826 0.0629769 -0.12658502 -0.11658723 0.100294836 0.054803807
0.05096202 -0.053968832 0.008602147 0.035776764 0.034843486 0.047895595 -0.08478504 0.0004171295
0.00838019 0.049082685 -0.13612348 0.020885397 0.06642233 0.14776644 0.07738588 -0.13445202
0.05774892 -0.0063639395 0.10289209 -0.03634762 0.0122392 -0.16208254 -0.116053 -0.011492175
0.024103928 -0.16070506 -0.18602823 -0.07705823 0.06472958 0.07603511 -0.03629867 -0.03503057
-0.03275386 0.11553195 -0.03757489 0.010783221 -0.03963722 0.007033698 -0.100114055 -0.133191
0.069757305 0.11202515 0.11477443 0.086799346 -0.111415595 0.10518682 0.049364414 -0.07738099
-0.05780743 -0.1600336 0.07204874 0.029849872 0.053737074 0.06759723 0.054541703 0.0061462694
-0.041471843 0.018442968 0.083804585 0.1094492 0.0072025135 0.027901728 0.030906653 0.067395665
-0.039680894 -0.1415123 -0.039298728 0.014236244 0.06463813 -0.1108821 0.05485174 0.04561646
0.01563143 0.041720256 -0.040292114 0.06272195 0.049807705 -0.039712798 0.06869695 -0.03137577
-0.049970854 -0.002468393 0.04001308 -0.04658826 -0.04744063 -0.030502759 -0.0653245 -0.07740898
-0.009252775 -0.08568195 -0.049357265 -0.10200831 -0.0062554944 0.05916359 -0.009504856 -0.08238451
-0.100233704 -0.041358426 0.10312551 0.19045134 -0.14977047 -0.08228672 0.10616612 0.1454977
0.16771477 -0.06468596 -0.12190931 -0.029776335 0.10352722 0.10294785 -0.04364284 0.021296378
0.13936096 0.16768156 0.10124131 -0.07761021 0.08082529 0.06785744 0.04546998 -0.19505833
-0.18729632 -0.18629791 -0.08017147 -0.10901588 0.035813786 -0.026987588 -0.12883748 -0.075600065
-0.025371613 -0.033425767 0.043743186 -0.07631693 0.00041364817 0.025064802 -0.09983353 0.0762802
-0.0028319643 0.0076417224 -0.05507965 -0.015229723 0.012595485 0.12210979 0.067109734 0.066580065
0.060616214 0.21955194 0.13588355 -0.00625535 -0.052247923 -0.16853796 0.19192982 0.074123144
0.015247319 0.12908034 0.05071675 0.041229025 0.11461805 0.06844439 0.07426528 0.10546167
0.021850478 -0.004488267 0.13637023 0.009428155 -0.0069103166 -0.09891504 -0.08253095 -0.064896874
-0.07806099 -0.09039894 -0.068119794 0.008159929 0.047786284 -0.013516524 0.016788276 -0.15027598

conv2.bias f4 [20]
00000000: 4d97 f2bc 993c d53b aa60 d93c 6b88 ecbc
00000010: 6195 843c 49f3 463b 1bac 98bd 779a 8bbc
00000020: 62a1 0f3d d633 27bd 96e3 3fbd 7b31 6f3d
00000030: fb40 8cbd 66ec b43d 0033 9a3d b004 913a
00000040: e8c4 0bbc 9531 fdbc fb08 923d f679 6a3d
-0.029613161 0.006507468 0.02653535 -0.028873643 0.01618451 0.0030357412 -0.074547015 -0.017041428
0.035066016 -0.04082092 -0.046847902 0.058396798 -0.068483315 0.08834152 0.07529259 0.0011064019
-0.008530833 -0.030907432 0.07130619 0.057245217

fc1.weight f4 [50, 320]
00000000: 1e02 2fbd 91f5 24bd f90c baba de97 503b
00000010: 8446 4b39 3c88 82bc 4960 1a3b 6545 903d
00000020: f7e8 c0bc 6555 3dbb 0c10 be3c c39d 5abc
00000030: 0187 6bbd 95e5 1d3d 5176 53bd ce40 5139
00000040: 3417 b9bc 1ac7 3ebd 67a1 fb3c 1afa 273d
00000050: 6b59 69bd 5aeb 79bd e5c2 e13d 2871 43bc
00000060: d931 98bc 54ce 81bd 7ca7 133b dfd8 433d
00000070: 6179 85bd b893 a3bd cec0 333d 78bf a13d
00000080: dc50 adbc 0ff5 1fbd 231b 073d 5136 f93c
00000090: a6c9 683d f095 ddbb be81 9a3c 1cbb 37bc
000000a0: 2b50 f0bc b896 2fbd 7670 b1bc 81a0 043d
000000b0: 4508 9dbd 0679 053c 7f4a 383d 991f cabd
000000c0: 4c94 10bd 595d 333d e2f3 243d a46a c63d
000000d0: 77a9 6a3b f3e7 77bd 6f6b eebc aa94 123d
000000e0: a4de d1bd 5ac6 39bd f034 883c 3824 2bbc
000000f0: 3cad 813d 3b71 8a3c d84d 723d 9100 a9bd
00000100: 0d7b a5bd e3ea f33c 89d6 853c be1e 333d
00000110: e330 a4bb c481 49bc 3743 2a3d 52cf e3ba
00000120: 5011 2ebc 3cc6 edbb ae5b cbbc 429b 6bbd
00000130: 7527 aebc d64e 61bc 7b6f 08bd 2535 c83b
00000140: e181 a13d 44da 913d b366 463d af7e 2c3c
00000150: 9fb1 a23c 9cb1 183c 45c4 ccbc 9eef babd
00000160: 758f 583c a531 9a3c 43dc 453d 6921 82bd
00000170: 9ce5 a03c 8cca 373d a33c 97ba b449 67bd
00000180: 7393 913c 6b50 c33d 1a3a 833c eb8e 61bd
00000190: 65e9 c8bd 4d37 04bd eda3 3c3c 8574 e4bb
000001a0: 5113 953c 83cb 23bc 252e 003d 12c4 93ba
000001b0: b82f 36bd 082b 52bd 5a55 26bd 887e ab3d
000001c0: 013a 10be 9e7f b1bc 7cec 943c 9fe5 9c3d
000001d0: 9da7 103c 8aee 5dbc eaa8 89bd 1d0a fabc
000001e0: 1aef 2d3d 09fd 43bd 3719 05bd 6b73 15bc
000001f0: 982b 7dbd 51eb 8d3d 87e7 543d 6f00 03bc
00000200: d17d 9a3c 3728 2e3d 7ff8 f43d 0741 593d
00000210: bb6d 6bbd 670b 56bd 32b1 9dbd 7c79 973d
00000220: 39b1 87bb 3b9e ea3c c1fb ba3d 1383 b13d
00000230: d8de c83c c899 cfbd c400 7e3b fff2 013d
00000240: c21d 2ebe cfba bbbc 38f0 303d 91d8 383e
00000250: 5b1d 36bd 53d2 52ba c52f 9d3b 3a7d 0e3d
00000260: 0719 c2bd 9553 1ebc 0d2b e83c 13e3 633c
00000270: 0691 bcbd 79bd 543d dce4 283d 828d 71bd
00000280: 1d29 f93c 4f97 3bbd 620f 29bc e38b d03d
00000290: 2d25 0cbd 8a03 8c3c 3fec aabc c2d5 8b3d
000002a0: 6ca7 d8bc 8805 c4bc 6cda 09bd 4201 73bd
000002b0: 11bb 933c bb6c 3b3d 3ba9 7b3c a41d 38bd
000002c0: f6f3 a13d 6a7b b43d f418 ec3d 60a8 f93c
000002d0: 4eec 02bb f268 753d d242 80bd c61a 2fbd
000002e0: ebac 25bd b8f5 553d cc8d 86bc 4735 e5bd
000002f0: 9146 09bd 638d 263c 22de 073e 9d4b 083c
00000300: f5b4 70bc c994 243d 4ce6 513d 8c78 db3d
00000310: c57f c9bd 1c57 113d c654 c73c 9f06 e23d
00000320: 1a7f 6abd 25c5 57ba 774d 8ebd 8372 5f3c
00000330: fa46 03bb 644b 9abd 050e 9c3d dbfa 68bc
00000340: aeb4 953c e83a 493c e56a f9bc 445c b1bd
00000350: 63e5 0d3d 3cc9 703d 0516 00bd 2f6d b9bc
00000360: ab7a 52bb 1d1e 923d 7f4d 613d 249e 08bc
00000370: 40c0 4e3d b0c5 cdbc 4e5d 70bd 6663 863d
00000380: 06d2 913d 0789 cf3d 7ef1 873d 633a 43bd
00000390: d3fc 9abc 83f3 5c3c 2ba0 3dbd 1544 bbbd
000003a0: 7415 593d 1a77 403d 8549 a83d 01aa 5ebd
000003b0: 0a97 8b3d 2f3d 95bc e470 edbc 92a0 c53d
000003c0: 09a0 a9bd 106c 21bd 174f 633d 05b1 e63c
000003d0: 1dc1 93bd 3733 c2bc c50c 073d d7c3 4f3d
000003e0: 4f79 90bd 2816 223c 6b52 983c f0bc 3e3c
000003f0: 504b 21bd 7ca4 4a3d c112 263d 543e 763b
-0.04272663 -0.040273253 -0.001419454 0.00318288 0.00019385858 -0.015934102 0.0023555926 0.07044486
-0.023548586 -0.002889001 0.023201011 -0.013343277 -0.057501797 0.038549025 -0.051626507 0.00019955935
-0.022594072 -0.046576597 0.030716611 0.04101 -0.05697004 -0.061015464 0.11023501 -0.011928834
-0.018578457 -0.06338182 0.0022530248 0.047814246 -0.06517292 -0.079871595 0.043885045 0.07897848
-0.02115672 -0.039052065 0.032984864 0.030421408 0.056832932 -0.0067622587 0.018860694 -0.011214044
-0.029335102 -0.042868346 -0.02166007 0.03237963 -0.07667593 0.00814653 0.04499292 -0.09869308
-0.035297677 0.043790195 0.040271647 0.09688309 0.0035806575 -0.06052394 -0.029103963 0.03578631
-0.102475435 -0.04535518 0.016626805 -0.010445647 0.0633187 0.016899696 0.05915627 -0.08252061
-0.08080111 0.029775089 0.01633765 0.04373049 -0.0050107106 -0.012299005 0.041568007 -0.0017380512
-0.010624245 -0.0072562974 -0.02482399 -0.057521112 -0.021259049 -0.013751706 -0.03330944 0.006109851
0.078861006 0.07121709 0.048437785 0.010528251 0.019860087 0.009319689 -0.024995932 -0.091277346
0.013217797 0.0188225 0.04830576 -0.06354029 0.019640736 0.044870898 -0.0011538457 -0.056466773
0.017770505 0.09536823 0.016018916 -0.055067938 -0.098101415 -0.0322793 0.011513692 -0.006971898
0.018197687 -0.009997251 0.031294007 -0.0011273643 -0.044479102 -0.05131057 -0.04060874 0.08373743
-0.14084627 -0.021667298 0.01817917 0.07660984 0.008829025 -0.013545642 -0.06721671 -0.0305224
0.042464353 -0.047848735 -0.03249475 -0.009121756 -0.061809152 0.06929649 0.051978614 -0.007995709
0.018858822 0.04251882 0.11961459 0.05304053 -0.057477694 -0.052256968 -0.07699813 0.07396218
-0.0041409996 0.028639903 0.091300495 0.086675785 0.024520323 -0.10136753 0.003875778 0.03172588
-0.17003539 -0.022916226 0.04319784 0.18051364 -0.04446159 -0.0008042205 0.0047969543 0.034787394
-0.0947743 -0.009663482 0.02834084 0.013909119 -0.092073485 0.051938508 0.041233882 -0.058972843
0.030415112 -0.045798596 -0.010318609 0.10182931 -0.03421514 0.017091531 -0.020864604 0.068278804
-0.02644702 -0.023928419 -0.03365557 -0.05932737 0.018033536 0.04575799 0.015360172 -0.044950143
0.0790786 0.08812602 0.11528197 0.030475795 -0.0019977274 0.059914537 -0.06262745 -0.042750143
-0.04044811 0.05223629 -0.016425036 -0.111918025 -0.033514563 0.010165545 0.1326833 0.008318809
-0.014691581 0.040180955 0.05124502 0.10716352 -0.09838823 0.035483465 0.024332415 0.11036419
-0.05725012 -0.0008230976 -0.06948369 0.013638142 -0.002003132 -0.07533911 0.076198615 -0.014219965
0.018274631 0.012282111 -0.03044648 -0.086601764 0.03464259 0.058785662 -0.031271 -0.02263507
-0.0032116573 0.0713465 0.055005547 -0.008338485 0.050476313 -0.025118679 -0.058682732 0.065619275
0.07120137 0.10133558 0.06637858 -0.047663104 -0.018919384 0.013485792 -0.046295326 -0.09143845
0.052998975 0.046988584 0.08217148 -0.054361347 0.06815918 -0.018217651 -0.028984495 0.09649767
-0.082824774 -0.039409697 0.055495348 0.028160581 -0.07214568 -0.023706062 0.032971162 0.050723877
-0.07054388 0.009892978 0.018593987 0.011641726 -0.039378464 0.04947327 0.04054523 0.0037573772

fc1.bias f4 [50]
00000000: f36e e13d 8d5e 903d f430 7c3d 1636 d5ba
00000010: b9eb f0bb 0fd4 ab3d 36c9 4a3d 1ea8 19bc
00000020: 9971 8e3d 3f16 a33c 6d5f d03d 0e83 053d
00000030: 348f 043e 8833 c03d 937d b03d 853a a43a
00000040: 909a a93c a746 ab3c 23b3 1b3e 7340 793d
00000050: 0d2e 313b 9cca ba3d 56ee 723d 3232 8f3d
00000060: 32d3 8e3d eb36 8a3d f1b3 1dbd 16fe 7b3d
00000070: f5bb 42ba 5837 013e 83c7 c73c 92a0 fdbb
00000080: 636f a73d 3a96 1b3c cb98 273c 5cf7 033e
00000090: 15ad 22bd 0016 cf3d 265a 933d 07e6 123d
000000a0: 5ba6 453e 501f f4bb 837d c33c ac30 333e
000000b0: 07c7 f23c c210 133e 194f 1e3e 9546 f13c
000000c0: ea54 003e 4029 cc3d
0.1100749 0.07049284 0.061570123 -0.0016266729 -0.007352319 0.08390056 0.049508296 -0.009378461
0.06955261 0.019908069 0.10174451 0.032595687 0.12945253 0.09384829 0.086177014 0.0012529647
0.020703584 0.020907713 0.15205054 0.06085248 0.0027035505 0.09120676 0.059309326 0.06991996
0.06973876 0.06748756 -0.038501684 0.061521612 -0.00074285205 0.12618768 0.024387127 -0.0077400887
0.08175542 0.009496266 0.0102293 0.12887329 -0.039715845 0.10111618 0.07194929 0.035863902
0.19301741 -0.007450022 0.02386356 0.17499036 0.02963592 0.14361861 0.15459861 0.029452601
0.12532392 0.09968805

fc2.weight f4 [10, 50]
00000000: d4f0 113e 7252 49be 0c44 9dbe 7e2b bdbe
00000010: d7ee e7bd 91ce 6dbe 818d 033e a18c bc3d
00000020: 5f50 8cbe 44bc aebd 7ca4 84be c50d 25be
00000030: dbdf 243e 7d79 e33c 69cb 033d 1bf7 fcbd
00000040: 2d43 5c3d 8c9d e53d e7ea 3abe 5e24 5ebe
00000050: fd19 343d 7d60 233e 26b1 df3c aac8 6fbe
00000060: dd8d 93be abea 3bbe 1857 a9be 470a a3be
00000070: 1b42 c33d 106c adbd 4069 083e 4927 18be
00000080: 6004 f13d 38f4 69be 6a77 94bd 5ee6 333e
00000090: 01aa 213e c61e 683e f465 a3be 2d5f c13d
000000a0: 011c 4fbe eb48 80be 154c c43d a27a 89be
000000b0: bd21 b63d d58c 1bbe 8f77 22be b1e3 5f3e
000000c0: 0e62 7bbe f0ac f03d 3e7b 083e 9e5d 4dbe
000000d0: d9c1 ffbd fa76 6dbd 73e2 81be 4d86 793e
000000e0: 3363 3dbe c558 76be 0baf a53d cb59 53be
000000f0: 0441 873e e2d2 a9be 349a 163e b2f4 80be
00000100: 1eaf b13d 76d5 80be 1ae0 ddbc 4c98 d4be
00000110: 389e d53d e75f 353e 1838 7bbd 5de1 90be
00000120: 1703 92bd ee14 883d dc10 eabc f83e bf3d
00000130: 703b 8bbe 06b4 2a3e 8577 ccbe 568c 243e
00000140: 33ff 3abe e610 28be cfa6 d73d 9ca1 9ebe
00000150: 9974 53be 1d57 383e 9f36 85be 953f 55be
00000160: 8687 e03d 066d 1cbe 6a9e 043e 125b 7fbd
00000170: dcc3 77be 0caa 163e 66de fd3c 60e6 b53d
00000180: 8a95 0c3e 25aa 96be f800 8b3d 194d 31be
00000190: 1d86 62be e12b e2bd d9d2 14be af48 e03d
000001a0: 2767 913d 2cb2 87be cf23 293e e42a bbbd
000001b0: bac7 1ebe dc4b d2bd aa88 843c dcd4 23be
000001c0: 57b6 263e d407 5f3d 6b46 be3d ccac 3ebe
000001d0: 633b 9f3d 7e04 e1bd 8411 003e dd37 1abe
000001e0: 12a6 bc3d dcdf 2bbd 3cf2 4ebe 77ff b83d
000001f0: bac1 07be 2f65 46be c387 c0bd b7ce efbd
00000200: 100a 4f3d f774 283e 39dd 19be 77b8 4e3e
00000210: ea4e 9bbe 1f22 1b3d 66f1 8dbe 0b83 71bd
00000220: e8ef 283e bc33 2dbd 2333 e33d 0b4a e43d
00000230: fd68 48be eab9 e23d f2a3 40be a2ae 4ebe
00000240: b305 5dbc d333 9c3d 96b7 1ebe 26f8 19be
00000250: dcf8 fb3d 6d64 afbd 8d23 7ebe 5687 2fbe
00000260: 0eff 943d c1d6 073e de02 43be fe55 02be
00000270: 5aba 23be 734b af3d 704b 1c3e 1e41 adbd
00000280: 9c7e 9cbe 3942 143e ccce 30be 4e41 16be
00000290: f3e2 cf3d 7cbf 2d3e a69d 993d 9f14 343e
000002a0: 0b3a 5b3b 6aa8 b5bd 0d72 c63d 81fc 22bd
000002b0: d769 94be f8ae a8bd 8201 37be acf2 153e
000002c0: 07bc 21be d141 173e 14f5 08be 8f1a 01be
000002d0: dc49 debd 3005 9bbd 8b93 8abe 51b6 87bd
000002e0: 1f80 92bd be1d 8cbe 1bc0 2abc bd83 2cbe
000002f0: 854d ea3d 33c2 d63d beb9 52be f6d0 0e3e
00000300: 9d94 9b3c 4f29 24be 4ea1 f83d 0691 39be
00000310: cc58 8ebe 8302 0abe 263e 0bbd f2d7 8abe
00000320: fa98 3abe 9350 f53d ddfc 8d3d df4c b5be
00000330: 1c7e 70be b7e1 24be a52d 3abe 8582 97be
00000340: a2c0 cdbc 89b4 41be 9cfb 8a3e 4851 ac3d
00000350: 1253 cebc d780 a43d 3fe8 d93d cd16 18be
00000360: 836f 8bbe b7c3 c03d 3f80 a5bd 3592 253e
00000370: 14e5 a6be 0743 70be 1a48 fd3d 99d7 52be
00000380: 8239 313e c9d8 babd db89 f33d ebe4 d6ba
00000390: 1fa1 803d 27f3 1c3e 669d 74be 7847 e6bc
000003a0: 8304 49be b5fa 153e 44e9 0ebe f3aa 11be
000003b0: f71b 29be b00b 20be 222b 49be b852 9a3d
000003c0: b984 fe3d d3ed bd3d a87b 003e a2d0 173e
000003d0: 143a 8bbe 0078 b93d 2c80 043e ac0f ae3d
000003e0: f3c1 7abc 0491 053e f618 f43d 1621 23be
000003f0: a5ed 873d 6743 ab3d 5b83 4f3d 02b9 4e3e
0.14252025 -0.19660357 -0.30715978 -0.36947244 -0.11324852 -0.2322333 0.12846948 0.0920651
-0.27405068 -0.085320026 -0.25906742 -0.16118534 0.16101019 0.027767891 0.03217641 -0.12351819
0.053775 0.1121169 -0.1825367 -0.2169356 0.043970097 0.15954776 0.02730615 -0.23416391
-0.2881917 -0.18351237 -0.3307426 -0.31843778 0.09534093 -0.08467877 0.133214 -0.14858736
0.117684126 -0.22847068 -0.07249339 0.17568347 0.15787508 0.22667989 -0.31913722 0.094419815
-0.20225526 -0.25055632 0.09584824 -0.26851374 0.08893154 -0.15190442 -0.1586592 0.21864201
-0.24549124 0.11751735 0.13328263 -0.20055243 -0.124881454 -0.057974793 -0.2536808 0.24367638
-0.18494873 -0.240573 0.080900274 -0.20639722 0.2641679 -0.33168703 0.14707261 -0.25186688
0.08675979 -0.25162858 -0.027084399 -0.41522443 0.104305685 0.17712365 -0.061332792 -0.2829694
-0.071294956 0.06644617 -0.028572492 0.09338182 -0.27193785 0.16670236 -0.39934936 0.16069159
-0.18261413 -0.16412696 0.10529863 -0.30982673 -0.20649947 0.18001981 -0.26018235 -0.20825036
0.10963349 -0.15275964 0.12951055 -0.06234271 -0.24195808 0.14713305 0.030989837 0.08881831
0.1372892 -0.29426685 0.06787294 -0.17314567 -0.22121473 -0.110435255 -0.14533557 0.10951363
0.07099753 -0.26503122 0.16517566 -0.0913904 -0.15505877 -0.10268375 0.016178448 -0.15999168
0.16280495 0.054450825 0.09290775 -0.18620604 0.07774999 -0.10987185 0.12506682 -0.15060373
0.09211363 -0.041961536 -0.20209593 0.09033101 -0.13257495 -0.19374536 -0.094008945 -0.117093496
0.050546706 0.16450869 -0.15025796 0.20187555 -0.30333644 0.037874337 -0.27723235 -0.058962863
0.16497767 -0.042285666 0.11093738 0.11146935 -0.195713 0.110706165 -0.1881254 -0.20183805
-0.013490128 0.07627072 -0.1549972 -0.15036067 0.123033255 -0.085640766 -0.24818249 -0.1714147
0.0727521 0.13265516 -0.19044062 -0.12728116 -0.15989056 0.08559313 0.15263152 -0.08459686
-0.30565345 0.14478387 -0.17266387 -0.1467335 0.10150709 0.16967577 0.07500772 0.17585991
0.0033451344 -0.08870013 0.09689722 -0.039791588 -0.28987 -0.08236498 -0.17871669 0.14643353
-0.15794383 0.147712 -0.1337474 -0.12607788 -0.10853931 -0.07569349 -0.2706569 -0.06626571
-0.071533434 -0.2736644 -0.010421778 -0.16847129 0.11440567 0.10486259 -0.20578668 0.139469
0.018991763 -0.16031383 0.121401414 -0.18121728 -0.27802122 -0.1347752 -0.033994816 -0.27117878
-0.18222418 0.11978259 0.069329955 -0.3541021 -0.23485607 -0.16101728 -0.18181475 -0.29591766
-0.025116269 -0.18916525 0.27145088 0.08413941 -0.025186095 0.08032387 0.106400006 -0.14852448
-0.27233514 0.0941233 -0.080811016 0.16169055 -0.32596648 -0.23463069 0.12367268 -0.20590056
0.17307094 -0.0912338 0.11891528 -0.0016395127 0.062807314 0.1532713 -0.23888168 -0.02811025
-0.19630627 0.14646418 -0.13956171 -0.14225368 -0.16514574 -0.15629458 -0.1964536 0.075353086
0.124276586 0.09273877 0.12547171 0.14825681 -0.27192748 0.09056091 0.12939519 0.08499083
-0.01530503 0.130436 0.119188234 -0.1593059 0.06637124 0.08362465 0.05066238 0.20187762

fc2.bias f4 [10]
00000000: 0d43 1d3e ffbd 823e e1e2 19bd 1c48 1a3e
00000010: b90b 77be daac 35be e924 8e3d e7f0 693d
00000020: 848a 1a3e f4dd d03b
0.15357609 0.2553558 -0.037569884 0.1506657 -0.24125566 -0.17741719 0.06940634 0.057114508
0.15091902 0.006374115
