models/model.pth (torch, 90280 bytes, 8 tensors)

conv1.weight f4 [10, 1, 5, 5]
00000000: 3acc 5ebd fe79 963e 5ba2 323e 4850 783e
00000010: 9787 743e 5e9a 723e a9b2 8e3e e160 403e
00000020: 0674 e83d a4c4 89bd df84 38bd 24e8 57bd
00000030: 3d8d 0a3c fd2c 92bd 486a a43c 6d36 46bd
00000040: a8d4 8bbe 1a65 acbe 9731 6abe 79ea 59be
00000050: cc67 dabd 2997 51be 4efd 1cbe 17a6 75bd
00000060: 75d2 10be e09e 1b3e 842d 803e 7f85 c83e
00000070: 70c7 0f3e bc69 6abe f473 9abe 78e4 cabd
00000080: 0891 a53e e1f0 923e e933 8d3e 8ccf c0be
00000090: 8d19 0fbd 857d dfbb d843 b63e f870 a63e
000000a0: 29f3 d4be 43e3 38be ec42 70be ffaf 16be
000000b0: eddb e73d c74a 37be dd7d 92be 87a7 95be
000000c0: e3f2 82be 2447 b6bd b81d 2f3e df0a b43e
000000d0: 3733 c23d 9af0 1ebe 3c8b e83d c914 c1bd
000000e0: 8e0c 41bc 1b90 4f3e 304e d03d 8b25 243e
000000f0: 03ba 5dbe bc86 bd3c 4c82 9f3d 5ba1 193e
00000100: 350f 4fbe b5cd 43be 5219 193e 8174 c43d
00000110: bd75 433e b7e6 0abe 6af4 40bd 7a36 203d
00000120: 3c64 f63d f992 00bd e018 b9be 293d 823d
00000130: ec1f b0be 525f b5be fa76 c8bd 79ee a8bc
00000140: be4c 993e 0117 d8bd ef21 b4be 977d 073d
00000150: 0a04 13bd 699b c23e 97d2 b03e ea25 d7bd
00000160: e7ff b3bb 5e4b a43d c286 1abd 994b b93d
00000170: 0380 c53d 8ab5 2dbd 70a6 c1bd d6aa 40bd
00000180: 49a8 933e 1264 473d 56fa b73d 44a0 0c3e
00000190: 5ac9 8cbe b46a aebe 6436 8e3d 88ac 443c
000001a0: a242 8a3e 7e41 a93d 10a7 483e f9a6 933e
000001b0: 0178 a13e 0ee8 73bd 040c 563e a1ba 3e3e
000001c0: 21bf a3bc c844 da3d e440 2fbe 729c 98bd
000001d0: 76cb 8bbe 04e6 59be 5cb5 283e b280 c0bd
000001e0: f1b3 ffbd 45c1 b2be 28ac a6be 528e 1d3c
000001f0: 23f0 483e 0b7f 283e 262c c9bc d8fa a83d
00000200: 9a71 243e 6fb0 053c 4f6d 973d 423b 4b3e
00000210: 8449 253e 9c18 353e d096 1cbe 602e 63be
00000220: 2e3c 40be 8b32 abbd 4eba c1bc 7332 aa3d
00000230: 7211 0a3d 7f1c 08be c774 21bb 9d8e d13d
00000240: 7937 713e c46e 623e 673e 05bd adb3 003e
00000250: 85bf 12bd d32f 81bc 5fb5 9cbe 8da0 9abe
00000260: 8751 33be 1057 6d3c 7150 6c3e f067 cfbe
00000270: 9c37 6bbe 820d 0d3d 8a41 223e ac35 9d3e
00000280: f86f c4be 703b 04bd 8829 5dbd 1e55 833e
00000290: d74c f03d bbf6 c2be ea06 1fbe de0e 173e
000002a0: fcad 7f3e 2148 103e 8fd4 02bc a334 493d
000002b0: 0c17 2e3e ba21 413e 8ecd e4bc b529 aa3c
000002c0: 1674 9db9 c4cc 33bc 5562 7ebe 422d edbd
000002d0: 30d3 72bd b8ef de3d 2815 c7be d276 ecbe
000002e0: 002f a0be 1555 5ebc b089 ec3b 8f61 03be
000002f0: f190 27be 3164 efbc 6fbb 203e 7d1a 3dbe
00000300: b546 ab3e 4d4f ea3e b4f0 eb3e dcc3 dcbd
00000310: c440 1d3e 484f 193e 0d5e b93e 93ea 7dbd
00000320: e096 6a3e e052 9e3d b3e4 f8bd ad42 77be
00000330: e190 69be 797b 943e 0810 583e a767 02bc
00000340: 59d3 ecbe 79e6 3cbe 52a6 9a3e 7ebd 9b3e
00000350: 9062 87bc a54a c2be 7947 95be 40ff 903e
00000360: 4c67 5d3c 8dc8 3b3e 55cf 69be 4655 51be
00000370: 367b 293e 7554 8a3c 9b7d aeba 1776 583d
00000380: c3b5 223d a9b3 363e 5d36 96bc bde5 0bbd
00000390: f435 973e 25eb d83d 2365 5cbe 0b86 8c3c
000003a0: 8846 c5bd b7ae 1f3e aacf 863e c334 c9be
000003b0: f897 e1be 866d 8fbe 34bd ffbd 290b 4ebc
000003c0: 8f89 2abe 3771 9dbe 7cf1 f8be f96e d5be
000003d0: fa3e c0be 6732 bb3e c55a 803e 8a67 253b
000003e0: 1cc3 55bd 5387 e6bd
-0.054393984 0.29389948 0.17444746 0.24249375 0.23879848 0.23691699 0.27870682 0.18786956
0.11350255 -0.06726959 -0.04504859 -0.05271162 0.008456525 -0.07137487 0.02007021 -0.04839175
-0.2731068 -0.33670884 -0.2287048 -0.2128085 -0.10664329 -0.2046782 -0.15331003 -0.05997285
-0.14142783 0.15197325 0.25034726 0.3916435 0.14040923 -0.22891897 -0.3016659 -0.09906858
0.32337213 0.286994 0.27578667 -0.37658346 -0.034936476 -0.006820383 0.35598636 0.32508063
-0.41591766 -0.18055443 -0.23463029 -0.14715575 0.113212444 -0.17899619 -0.2861165 -0.29229376
-0.25575933 -0.08900288 0.1710118 0.35164544 0.09482425 -0.1552147 0.11354682 -0.094277926
-0.011782778 0.20269816 0.10171163 0.16029947 -0.21652989 0.023135535 0.07788524 0.15002958
-0.20220645 -0.1912144 0.14951065 0.09592534 0.19087882 -0.13564573 -0.04710809 0.039114453
0.12030837 -0.031390164 -0.3615179 0.063593216 -0.34399354 -0.35424286 -0.09788318 -0.020621525
0.29941362 -0.10551263 -0.3518214 0.033078756 -0.035892524 0.38009194 0.34535667 -0.105052784
-0.0054931524 0.08022188 -0.03772617 0.09047622 0.09643557 -0.042409457 -0.094555736 -0.04703792
0.2883933 0.04867942 0.08983295 0.13733011 -0.2749737 -0.34065783 0.06943968 0.012004025
0.27003962 0.08264445 0.1959498 0.28838328 0.31536868 -0.059547476 0.20903021 0.18625881
-0.019988598 0.1065765 -0.17114598 -0.074517146 -0.27303666 -0.2127915 0.16475433 -0.09399547
-0.12485493 -0.34913078 -0.3255322 0.009616451 0.19622855 0.16454713 -0.024557184 0.0825097
0.1605896 0.008159741 0.07393896 0.19846824 0.16141325 0.17685169 -0.15291905 -0.2218566
-0.18772957 -0.0835925 -0.023648407 0.08310404 0.033708043 -0.1329212 -0.0024636255 0.102322794
0.23556317 0.22112566 -0.032530215 0.12568541 -0.03582718 -0.015769875 -0.30607125 -0.30200616
-0.17511569 0.014486089 0.23077561 -0.40508986 -0.22970432 0.03443671 0.15845314 0.3070501
-0.38366675 -0.032283247 -0.053994685 0.25650877 0.11733406 -0.38078865 -0.15529981 0.14751765
0.24968714 0.14090015 -0.007985248 0.049122464 0.17000979 0.18860522 -0.027930047 0.02077184
-0.00030031864 -0.010974113 -0.24842198 -0.11580898 -0.059283435 0.108855665 -0.38883328 -0.46184403
-0.31285858 -0.01357009 0.007218562 -0.12830184 -0.16363885 -0.02922258 0.156965 -0.18467136
0.33452383 0.45763627 0.4608208 -0.10779545 0.15356737 0.1497165 0.36204568 -0.061991286
0.22909117 0.07730651 -0.12152996 -0.24146529 -0.22809173 0.29000452 0.21099865 -0.007959283
-0.46254995 -0.18447293 0.30205017 0.3041801 -0.01652649 -0.37947574 -0.29156092 0.2831974
0.013513397 0.18338223 -0.22832997 -0.20442685 0.16550907 0.016885975 -0.001331258 0.052846994
0.039724123 0.17841972 -0.01833647 -0.034154642 0.2953335 0.10591725 -0.21522956 0.01715376
-0.096325934 0.15593992 0.2633031 -0.39298066 -0.44061255 -0.28013247 -0.124872595 -0.012575903
-0.16654037 -0.3075044 -0.48621738 -0.41686228 -0.37548047 0.3656189 0.25069252 0.0025238716
-0.052188024 -0.1125628

conv1.bias f4 [10]
00000000: aa3e fabd c295 71be e8a7 053d c269 00bd
00000010: f5fa c5bc 3b51 1ebe 979a b23c f351 8abd
00000020: 438f 7abe bf46 763c
-0.122189835 -0.23592284 0.03263083 -0.03135086 -0.024167517 -0.15460674 0.02180223 -0.06753912
-0.24468713 0.015031516

conv2.weight f4 [20, 10, 5, 5]
00000000: 8fd5 4b3c 1070 16be 44f9 5dbd d08b 59bd
00000010: 905b d53c 83f8 48bd a54d a4bd 52d1 97bd
00000020: 7c9c 6bbd 797e fa3c e8ca 51bc 7ba4 bdbd
00000030: d828 0abe 7f89 7cbc 30b6 21bc 9949 9ebc
00000040: fd56 f2bd 8d63 8dbd 2e84 d4ba 554d 7fbd
00000050: 7dcb 39be 4fb4 21be c89d f3bd 8346 223c
00000060: 2549 7ebd 2035 86bc a991 06bd 9364 f1bd
00000070: cec2 64bc d56d e43c 2439 043d 3f7b dfbd
00000080: e258 39be aaf4 03be 08f1 1ebe 43c9 64bd
00000090: deee dcbd 774d 1bbe 5be7 b5bd d214 ebbd
000000a0: 72d0 a1bd a285 1fbe d9ef 27be 1422 afbd
000000b0: 7706 0ebe 6d4e 0bbe c96e 1dbe fe5e f5bd
000000c0: 378e 87bc 4677 393d 0701 d23d caf5 a1bc
000000d0: c220 4bbd 3284 213d b1ec 843d cbe8 da3d
000000e0: 28c5 37bc adbd 70bd b6b9 14bc 480d 103d
000000f0: 6ce0 4f3d 3a2c 6fbd 8525 df3c 5a6b aa3d
00000100: 8168 e43c 862a 63bd e582 8e3d 0d87 ed3c
00000110: 410f 683d 43df c1bd 208d 96bd e580 b1bd
00000120: 77f6 e5bd e6b8 4dbd 8384 5cbd 7d67 76bc
00000130: a41f 4abd 29c6 83bd 27c6 d1bd 4f35 babb
00000140: 6c98 55bd d725 e1bd 2e68 7a3b 50e7 32bc
00000150: 059f 98bd cd01 73bd 50c8 2dbd 890d 65bc
00000160: 9b41 4fbd f475 fdbd 8a7b 03bd a25e aabb
00000170: dd9d 933c d713 46bd 7245 1fbd 75ae 48bd
00000180: d684 a4bd 6ba0 f5bd 5224 a6bc 2d47 763c
00000190: 498c a53b 4690 d9bd 574c 40be f758 f4bd
000001a0: 7d82 5bbd cf44 62bc e176 26be 9c78 0fbe
000001b0: 632e d8bd d6e7 c8bc 94ab a93d e0aa cfbd
000001c0: 2baa f7bd 999a 7a3d fb11 8d3d b341 893b
000001d0: 4be5 febd 78d7 83bd cf91 033e 03eb 8abd
000001e0: 1864 55be d173 98bd 9d26 c4bd bc5a cdbc
000001f0: 5136 8abd 1ade 96bb fbdb 11bd 0091 ca3b
00000200: 15c0 8e3c 1874 b1bb 4996 c83c ace2 a8bd
00000210: 71ac 48bd e608 8bbd 9fc4 bc3c dde3 8abd
00000220: 79f8 d6bd 03c0 823c 3357 61bc 8e98 e8bd
00000230: eb75 82bd b005 0bbe ed83 d0bd 86b9 79bd
00000240: 4658 6fbd 44e1 43bd 5c63 85bd b4bd ab3a
00000250: 59a4 033d cbd0 0ebe 64b4 903d c135 903d
00000260: 40f5 9f3c 48c6 763b 3930 e6bc 0a93 393e
00000270: 9937 9f3c 22d4 133e 414b 653d 7438 493e
00000280: 0108 1b3e 7ef1 043e ccec da3d c0b0 b93d
00000290: 5acc ba3d c6cb 7d3d a8d3 923c 1f24 9d3d
000002a0: 6376 bc3d 4803 fc3c 96ab 873d f341 483d
000002b0: 21d5 2a3e 6445 0a3e 285b 29be 4997 30bd
000002c0: 4e3c d3bd 0474 3f3d 234b 11be 9cc1 79bd
000002d0: a8ff 84bd 5dd0 19bd 9784 87bc d561 983d
000002e0: 2ced 3cbc 93b7 e6bd 7e03 89bc 9a50 a9bc
000002f0: 1204 c53d 976e 1fbd 2fc1 4abd 56d8 7abd
00000300: bc5e e8bd 4772 ecbd 7fab b73b eaf3 e7bd
00000310: dcc3 efbd c46a 55be 39ed 7bbd c4b1 eb3d
00000320: d84f f63d d5c9 333e 81f8 643d 2ded bfbd
00000330: 9aed 77bd 6515 553d 3d1c dc3d f195 783d
00000340: bfc0 a53a b54c b03d c033 373e 4d16 173e
00000350: b4a6 66bd 3f75 533d 1cae c63d 4202 313d
00000360: a7bd 703d c6be 163c d92f ea3d 5a91 2e3e
00000370: 0da4 023e c7b7 f43c bc1f 1f3e 55e9 333e
00000380: ade7 1a3e cade 623b e2bf e43c fe66 00bb
00000390: 613a c93d 4cd1 5bbc 3d78 7e3d eda0 813c
000003a0: fe34 f0bc dd8b e2bc db20 a5bd 5045 673d
000003b0: 436d 67bd 0649 82bd b398 d4bd 248f 90bd
000003c0: 4943 47bd dbee 70bd 0c96 93bd d280 20be
000003d0: c541 323d 9fc3 c4bc bf2b a3bd df30 8bbd
000003e0: 4f13 76bb ca10 013e dd0c 2ebd 14a1 87bd
000003f0: a1fa e1bc 15ad cbbc 96db d6bc b7d9 1bbe
0.012441053 -0.14691186 -0.054192796 -0.05311185 0.026044637 -0.049065124 -0.08022622 -0.074129716
-0.057522282 0.030577885 -0.012804724 -0.09259888 -0.13492143 -0.015413641 -0.009870097 -0.019322203
-0.11832998 -0.069037534 -0.0016213709 -0.06232961 -0.18144031 -0.15791439 -0.11895329 0.009904507
-0.062081475 -0.016382754 -0.032853756 -0.11786761 -0.013962461 0.027884403 0.032281056 -0.10912179
-0.18100312 -0.128863 -0.15521634 -0.055856 -0.10787748 -0.15166269 -0.08882018 -0.114785805
-0.07901086 -0.1557832 -0.16400088 -0.08551422 -0.13869654 -0.13604136 -0.15374292 -0.11981009
-0.016547306 0.045279764 0.10254102 -0.019770522 -0.049591787 0.039432712 0.06490458 0.10688933
-0.011216439 -0.05877464 -0.00907748 0.035168916 0.050751135 -0.058391787 0.02723957 0.08321257
0.027881863 -0.055460475 0.0695856 0.028995061 0.056655172 -0.09466412 -0.07351136 -0.08667163
-0.1122865 -0.05022516 -0.05383731 -0.015039322 -0.04934658 -0.064342804 -0.10242873 -0.0056826244
-0.052147314 -0.109935455 0.0038209069 -0.010919407 -0.074522056 -0.05932789 -0.04242736 -0.013980278
-0.050599676 -0.123760134 -0.032100238 -0.0051992694 0.018019611 -0.048358764 -0.038884588 -0.0489945
-0.08033149 -0.11993488 -0.02028099 0.015031618 0.0050521237 -0.10623221 -0.18779121 -0.11931031
-0.05359124 -0.013810351 -0.16256286 -0.14010853 -0.105557226 -0.02452461 0.08284679 -0.10140014
-0.12093004 0.061182592 0.06888195 0.00418874 -0.12446078 -0.06437582 0.1284859 -0.06783106
-0.20838964 -0.07443965 -0.095776774 -0.02506768 -0.06748641 -0.0046041133 -0.03561018 0.006181836
0.017425576 -0.005415451 0.024485724 -0.08246359 -0.048992578 -0.067888066 0.023042975 -0.06781743
-0.10496611 0.015960699 -0.0137537 -0.113572225 -0.06370147 -0.13576388 -0.10181413 -0.060967945
-0.058433793 -0.047822252 -0.06513092 0.0013102801 0.032139156 -0.13946836 0.07065657 0.07041503
0.019526124 0.0037654806 -0.028099166 0.18122497 0.01943569 0.14436391 0.05597997 0.19650441
0.15139772 0.12982747 0.10689697 0.090669155 0.09121008 0.06196191 0.017923191 0.07672905
0.09202268 0.030763283 0.06624524 0.04889102 0.16682865 0.13503033 -0.1653868 -0.043113027
-0.103142366 0.0467415 -0.14188819 -0.060975656 -0.06494075 -0.037552226 -0.016542716 0.07440535
-0.011531156 -0.11265483 -0.016725298 -0.020668317 0.09619917 -0.038923826 -0.04950064 -0.06124147
-0.11346194 -0.11545234 0.0056051607 -0.1132582 -0.11707279 -0.20841509 -0.06150553 0.115085155
0.12026948 0.17557462 0.055901054 -0.093714096 -0.06052933 0.052022357 0.107475735 0.06068987
0.0012645944 0.08608381 0.17890835 0.14754601 -0.056311324 0.051625486 0.097011775 0.043215044
0.058774617 0.009200757 0.114349075 0.17047635 0.12757893 0.029872788 0.1553945 0.17569478
0.1512744 0.0034617656 0.027923528 -0.0019592638 0.09825588 -0.0134165995 0.062126387 0.015823806
-0.029322144 -0.027654583 -0.08062907 0.056462586 -0.056500684 -0.06361584 -0.103806876 -0.07058552
-0.048648153 -0.05882154 -0.072063535 -0.15674141 0.043519754 -0.02401906 -0.07967328 -0.06796431
-0.003754813 0.12604061 -0.042492736 -0.0662252 -0.02758533 -0.024862805 -0.026227754 -0.1521977

conv2.bias f4 [20]
00000000: af30 a63d cc88 4abd 2cea bbbb 072d 643b
00000010: 2294 56bd 1bbb c5bc 9a55 993c 3447 d7bc
00000020: eb7c 95bd e3d4 133b a182 8fbd f2ec 79bd
00000030: 5fb1 23bd d34e 02bc 1222 ddbd ad71 0abd
00000040: 9f9b 3bbd b970 2fbd a276 7bbc a916 ab3c
0.081147544 -0.049446866 -0.0057347026 0.0034816877 -0.052387364 -0.02413707 0.018717576 -0.02627907
-0.07299217 0.002255731 -0.07007337 -0.061016984 -0.039964076 -0.0079533635 -0.10797514 -0.033799816
-0.04580271 -0.04283211 -0.0153481085 0.020884829

fc1.weight f4 [50, 320]
00000000: 5b41 d5ba e7a3 62bc 9c81 be3d c46e ae3d
00000010: ef61 b2bc e942 0ebd 4195 babc 412a b53c
00000020: a13f 6cbd 1ad0 e9bc ce23 44bd 8df5 23bd
00000030: 2558 8a3d cf51 f43d ac75 d53c 9980 a1ba
00000040: fd90 5cbd cb2d 8cbd 7724 183d 2edc 943c
00000050: a40e c93b 94fd 65bd 67f0 703d 3fac 993c
00000060: de23 433d 74f0 c1bc 096d d4bb 7000 9d3d
00000070: a64b a6bd 64bc fabb 2b8a 033d 6b63 57bc
00000080: 52b2 85bc 9062 66bc 6704 a2bb d701 f63d
00000090: 7360 15bd 8fc2 42bd 4cbc 6bbc 1296 bdbb
000000a0: 01d1 fbbc e68b f0bc 3323 c23d 5597 85bd
000000b0: 9f18 cf3c 767b 073e 7748 103e 0beb c0ba
000000c0: 03f5 10bd 2fc4 1e3d def4 48bd 67ac c93c
000000d0: a7aa 76bc 2975 50bd 73a9 87bd 6b5c a33c
000000e0: 24bc dabc 5894 c13c 1883 a33c d033 2cbd
000000f0: ff32 323e f192 a93d d10f f4bc b3ab 43bd
00000100: bc43 45bd 0518 8e3b 3344 5a3d 7d26 a83c
00000110: 3588 a3bd 2afa 43bc 951d d63b 908d 5ebc
00000120: d9fe e3bc d1b3 7c3d f8f2 a03c 3307 94bd
00000130: 5b6c 4b3d e2a0 9e3c f872 91bd 975b e0bd
00000140: 5a60 7fbd d2a8 72bc abe7 24bd 9f9c 363d
00000150: 1108 c038 7089 d33c cee4 393d ea45 18bd
00000160: 375d 743d 6300 1a3b 2976 513c 06c6 5d3c
00000170: 142f 3f3d ba4f 6fbc 6b86 c8bd 187c 9dbd
00000180: 5b0b fbba 1f10 d1bc 8dda 433c aca1 503c
00000190: dd83 51bd 481e 5abc 22df 833d 8797 b93c
000001a0: 5a93 453c 0ad2 90bc 350b 41bd 60e7 073c
000001b0: 1726 903c 8b10 a93d f139 9b3d 3ab4 243b
000001c0: fc41 b9bc 12d5 6bbc 6405 193d 984a ae3d
000001d0: c451 ba3c 6958 703d ccb6 6b3d fa91 ac3c
000001e0: 280e 133b 4751 e9bc 64c0 d63c 4367 283d
000001f0: a34c 23be bb98 4fbd bef0 243d 77ac 933c
00000200: d6f9 393d d42b 253d 993a e53b a833 fa3c
00000210: 66f3 373d 3b8e 39bc 46ac ca3c 387b d63c
00000220: ca06 703c b9fb bdbc 4a97 4ebd aad0 8bbc
00000230: 3c9c 4cbd 4917 2b39 5866 0b3d 2583 343d
00000240: af7d 1e3d f260 78bc 10d1 753d eb1b 433c
00000250: 71d7 8f3c 85eb e9bc 901f 9c3c 9b82 f0bb
00000260: 6898 503b 8c8a 0bbd 0127 42bd f842 03bd
00000270: c8ed efbd 32fb 1dbd 876c dbbd 7d05 5bbd
00000280: afe7 2ebd b450 73bc 4855 103d 6e82 0fbd
00000290: 014c 43bd ff59 823d d38d 9e3c ef49 9f3c
000002a0: 760a 923d cd77 1ebd 2df8 e53b 814f e0bc
000002b0: f50f c63d 6d36 e9bd d538 5bbd b4b8 8ebd
000002c0: 7032 053c 71c4 f93c 8d9a a23d 6df4 97bc
000002d0: 264b b13c 1d7e f0bc 444d dd3c d5c2 a4bb
000002e0: 255a 023c 730f 573d ce57 643c a9d2 a2bd
000002f0: a68c 8bbd 6ed2 fcbd 8a81 1abe 719e e2bd
00000300: 7e75 733d 8aa6 bd3c 4402 9abb ee5c 34bb
00000310: e435 923b de5f 3cbb 1262 753d 6935 8f3c
00000320: aba3 cdbb b55f c1bc 8833 97bd bf9c cdbc
00000330: 12fe dbbd da44 4e3d 04c4 a43d 82d0 c83d
00000340: b9bb fb3d fa18 5c3c ebb4 8b3d 0f3e 3a3d
00000350: bf7f 3b3c 96a5 adbc 7663 803b 1c5a 28bd
00000360: 6528 2ebc 0928 3d3c eee5 8dbd 86dd c5bd
00000370: 8ae6 7c3d 059e 8d3c 58a5 d6bd 6fca 0bbe
00000380: 3065 473d 549f 673b 0918 583d 3fd8 d2bb
00000390: bf8c e8bc d87e 38bd 5a47 47bc 26e3 a8bd
000003a0: c23f 43bd e01b 32bc d32f 64bd 75b6 02bd
000003b0: 6f54 573d efc4 78bd ba90 cabd 900d b6bd
000003c0: 49f8 daba a0e3 943d ff80 8ebc 49cc 9a3d
000003d0: bef8 9dbd f535 d6bc 1e36 96bc df7a 0abd
000003e0: 978e 5cbd 7124 adbc 4458 d0bc dc6e 2fbe
000003f0: cba3 bdbd 9a9e 19bd 8d50 fabd e96d d0bd
-0.0016270088 -0.013833023 0.09302065 0.085172206 -0.021775214 -0.03473178 -0.022776248 0.022114875
-0.05767787 -0.028541613 -0.04788571 -0.040029097 0.067550935 0.11929666 0.026057087 -0.001232165
-0.05384921 -0.06844672 0.03714415 0.018171396 0.0061357785 -0.056150034 0.058823016 0.018758891
0.047641627 -0.023674227 -0.0064827246 0.07666099 -0.081198975 -0.0076518524 0.03211419 -0.013146262
-0.016320381 -0.014061585 -0.0049443725 0.1201207 -0.036468934 -0.047548827 -0.014388155 -0.005785712
-0.03073931 -0.029363584 0.0947937 -0.06523005 0.025280295 0.1323069 0.14090143 -0.0014718486
-0.03538991 0.038761314 -0.04906165 0.02461834 -0.015055335 -0.050892983 -0.06624117 0.01994153
-0.02670104 0.023630306 0.019959971 -0.0420416 0.17402266 0.0827998 -0.029792698 -0.047771167
-0.0481603 0.0043363594 0.053287696 0.020526165 -0.07984964 -0.011961499 0.006534288 -0.013583556
-0.027831482 0.061694924 0.019647107 -0.07227936 0.049663883 0.019363824 -0.07102007 -0.109549694
-0.062347747 -0.014810758 -0.04026 0.04458296 9.156776e-05 0.025822371 0.04538422 -0.03717605
0.05965921 0.0023498766 0.012784519 0.013535982 0.046675757 -0.014606411 -0.09791263 -0.07689685
-0.0019153164 -0.025520382 0.011953962 0.012733858 -0.051151145 -0.013312884 0.064390436 0.022655262
0.012059057 -0.01767828 -0.04712983 0.00829491 0.017596288 0.082551084 0.07579411 0.0025131837
-0.022614472 -0.014394062 0.037358657 0.085103214 0.022744067 0.058678064 0.057547376 0.0210657
0.0022438858 -0.028481139 0.026214786 0.041114103 -0.15947203 -0.050682765 0.040268652 0.018026574
0.045404278 0.040325 0.006995511 0.03054221 0.044909857 -0.011325414 0.02474035 0.026181802
0.014650056 -0.02319132 -0.05043725 -0.017067272 -0.049953684 0.00016316505 0.03403315 0.04407038
0.03869408 -0.015159832 0.06001383 0.011908512 0.017558785 -0.028554687 0.019058019 -0.007339788
0.0031829122 -0.034067675 -0.04740048 -0.03204629 -0.11715275 -0.038569637 -0.10714059 -0.05347203
-0.04270142 -0.014850784 0.03523758 -0.035036497 -0.047679905 0.06364822 0.019354736 0.019444434
0.071309015 -0.03868847 0.0070181102 -0.02738166 0.09671012 -0.11387334 -0.053520996 -0.06968823
0.008129701 0.030489178 0.079396345 -0.018549168 0.021642279 -0.02935701 0.027014382 -0.0050281086
0.007956062 0.052504968 0.01393695 -0.079503365 -0.06813936 -0.12344824 -0.15088478 -0.110653765
0.05943822 0.023150701 -0.004699977 -0.002752121 0.0044619907 -0.0028743665 0.05990798 0.017481523
-0.0062756143 -0.023605207 -0.07382876 -0.025099156 -0.107418194 0.05035863 0.080451995 0.09805395
0.12291665 0.013433689 0.06821617 0.04546934 0.011444031 -0.021197122 0.0039181067 -0.04110156
-0.010629748 0.01154519 -0.06928621 -0.09661393 0.061743297 0.017287264 -0.104807556 -0.13651441
0.048680484 0.003534277 0.052757297 -0.00643447 -0.028387425 -0.045042843 -0.012163008 -0.0824645
-0.047668226 -0.010870904 -0.05570967 -0.031912286 0.052570757 -0.060734686 -0.09890886 -0.088893056
-0.0016706075 0.072699785 -0.017395495 0.075584956 -0.077134594 -0.026148776 -0.018336352 -0.033808585
-0.05384692 -0.02113554 -0.025432713 -0.17132133 -0.09259757 -0.03750477 -0.12222395 -0.10177214

fc1.bias f4 [50]
00000000: 180c b53d 0e7f ac3d 2a7a 54bc 10e0 fb3c
00000010: 6c96 f43c c663 75bc 8c21 0a3e 97f7 b03c
00000020: bf18 1d3c 49d6 843c 239d c73c 6f86 13bd
00000030: ad87 793d 5645 5c3d 8f88 a63d 9d9d acbc
00000040: ee8c 063d 36fe aa3d da15 803d e4bc 183e
00000050: 98b5 e63d d4e4 e33c 5fd9 0b3c e74e 453d
00000060: 465a b5ba b8b9 4c3d 15b6 803b e732 b33d
00000070: f93e 8c3c 2db9 1fbd dbf5 10bb 5fd1 873d
00000080: 7f43 cabb 31cd 693b a969 8c3d 0fa9 813d
00000090: 5182 0cbc 80b1 d53d 8e69 c03d 64ec 8fbd
000000a0: 1db7 b13d c5c5 5f3c d0bb 4abd 5c71 5a3d
000000b0: 766a 9b3d 935d b63c f055 0e3e b79e 533c
000000c0: fe6d 0bbc b518 773c
0.08840197 0.08422671 -0.012968579 0.03074649 0.029856883 -0.014977401 0.1348936 0.021602435
0.009588419 0.01621546 0.02436692 -0.036016878 0.060920406 0.05377706 0.08131515 -0.02107125
0.032849245 0.08349268 0.06254168 0.14915806 0.11265105 0.027819075 0.008535712 0.04817095
-0.0013836108 0.049981803 0.003927956 0.08749943 0.017119871 -0.038994957 -0.0022119198 0.06631731
-0.006172597 0.0035675282 0.068560906 0.063310735 -0.008575992 0.10434246 0.09395133 -0.0702751
0.08677504 0.013657992 -0.04949552 0.053330764 0.07588665 0.022261417 0.1389997 0.012916259
-0.008510111 0.015081574

fc2.weight f4 [10, 50]
00000000: 9cb1 a8be fcb3 97be 5459 86be 8373 74be
00000010: a103 633e 7b76 a33d eb27 16be 9f14 8abe
00000020: 683d 413e 2a61 543e f8e3 253e cb1a ebbd
00000030: c4a4 683e 1f5f a13e b6a0 483e 8c02 42be
00000040: 0298 583e 6cb1 8dbe 8eca 3abe c0ce 0dbe
00000050: 178f 9ebe 15a8 76be 1e08 7fbe 8da8 84be
00000060: abb8 023d f0d3 7abd 3b30 f0bd 870c 5cbe
00000070: 37d4 653e d03e 11be 2362 2fbe bdad 4b3e
00000080: 2084 0e3e 351f 51bd eb11 883d 8465 4cbe
00000090: 61b1 49be 4208 4ebe 663b 09be 5054 bcbd
000000a0: 3502 7b3e 5bf9 9e3e 44f1 44be 13e2 99bd
000000b0: 1558 743e bf7f 2e3d 78ea 533e 4082 913e
000000c0: e2ee 40be cc75 3b3e 5e29 563e a360 273e
000000d0: b553 66be d27c 8f3e ccf9 8bbd f844 67be
000000e0: fa5e 8e3e 018f 973c 1668 8abe 9622 2dbd
000000f0: 99cc c3bd e257 86be d8fe 2abd c315 03be
00000100: 7d7a 94be 4adf 52bc 06da 4fbe c74d 423e
00000110: 0c3b 463e 2518 3c3e c77b 273e e945 7fbe
00000120: 731b b3be 14b5 433e 441d 2b3e 119b ac3e
00000130: 0a64 693e d3ed 423e ae8e 5fbe 58e4 50be
00000140: a181 3e3e 6a77 d7bd 7573 26be 97cb 7dbe
00000150: 59fe 44be 397b 903e 65e1 1ebd 977c 573e
00000160: cf4a 223e 46d8 83be f705 513e 5cf1 ecbd
00000170: 8528 b5bd 4944 8d3e 34d2 76be 95d2 fa3d
00000180: 2eae 393e e59f 8abd c941 1cbe b8a7 75be
00000190: f242 5fbe 5b1b 0b3e 8aa4 233e 0ad1 1e3d
000001a0: 3f20 313e 6b85 d13d de68 6a3e 26ff 413e
000001b0: dc3c 143e 623a 793e e9a4 8b3d f9cd fc3d
000001c0: 35cc 9e3c 4077 38be 82ac a2bd 7875 43be
000001d0: db46 3dbe 5d22 673e 6292 b3bd d573 93be
000001e0: d6d2 4ebe 924e a5bd 86e3 5dbe 093e 5b3e
000001f0: 627f b5bd 7482 8f3e 9d9d 80bd 8c80 42be
00000200: 8e0a 13be 3d03 efbd fba6 5f3e 561d 153e
00000210: 10a0 dabd 9f76 63be 00b4 0c3e 3173 01be
00000220: 963b 5f3e 14cf 9a3e b091 38be 51a5 c7bd
00000230: fa8c 703d 14fe ab3e 4742 3e3e 9ad7 87bc
00000240: f7f3 b2bd 30fe a43d 4593 463e fd4c 7e3e
00000250: 2ef4 3f3e ebf7 dcbd 49a2 9cbd 28b2 bdbd
00000260: 555d 063e a217 7c3e e5bb a2bd e705 d53d
00000270: 03e8 29be 48c2 513e 2b45 4bbe 430a b8bc
00000280: 75f5 84bd a01f 19be a4d3 25bd a99f f5bc
00000290: 61b5 cabd 4315 503e 5c39 673c 330a 473e
000002a0: 6074 5b3e f9ea 5dbe e5a4 1cbe 2d45 53be
000002b0: 247e 293e 1d43 503d 97d9 7b3e e54f 51be
000002c0: 2f2b 15be 9514 3c3e 08d9 03be 2759 533e
000002d0: 4661 3a3e 9f5f 5b3e 5d72 4c3e 887a bdbd
000002e0: 3d85 5bbe 74ff 1abe e959 713e 7b37 5a3e
000002f0: 42a2 4abe b2b1 9c3e 78bd fbbd 63cb 1fbd
00000300: 7ab7 abbd 9d40 aebd 3807 edbc a55e de3d
00000310: 41a3 02be 210f b2bd 922c 783e 5a3e 233e
00000320: 91c6 893e b5e8 463e fa3b 613e a892 0fbe
00000330: 7a3c 313c 16d6 babe 5e01 923e 9477 423e
00000340: c0a7 5d3e e45f 63bd 1144 be3e bf8b b03e
00000350: 633d 4dbe 52ea 99bd 9240 7abe 187d 29be
00000360: b259 85be 739a 46be 4717 853e d9df 93bb
00000370: a020 363e 1ae7 b23e 6919 a93d 136d 50bd
00000380: 0a88 dabd 2933 bbbd 3240 183d d81d 623e
00000390: bde9 4abe b69e 0fbe 20af fbbd 9d7b a4be
000003a0: 0eaf c4bd cc98 8e3e d137 523e b15b 933e
000003b0: 338b 0bbe 4a19 19be af68 3d3e 1d9f aa3c
000003c0: be25 61be 6714 213e 269a 34be c422 cb3c
000003d0: 9cc8 563e f28b 0abd 1a46 11bd 14e8 343d
000003e0: 4682 02be a678 94be ca75 7f3c d71e 3f3d
000003f0: 2548 39be 8139 d5bd 4c43 913d 11e5 68be
-0.32948005 -0.29629505 -0.26240027 -0.23872189 0.22169353 0.07981583 -0.14663665 -0.26968858
0.18871081 0.2074019 0.16200244 -0.1147972 0.22719103 0.31517884 0.19592556 -0.18946284
0.21151736 -0.27674425 -0.18241331 -0.138484 -0.30968544 -0.24087556 -0.2490544 -0.25909844
0.031914394 -0.061237276 -0.11727949 -0.21489154 0.22444235 -0.14184117 -0.1712728 0.19890495
0.13917589 -0.051055152 0.066440426 -0.199606 -0.19696571 -0.20120338 -0.13401565 -0.09195769
0.2451256 0.31049618 -0.1923266 -0.07513823 0.23861726 0.042602297 0.20694911 0.28419685
-0.18841127 0.18306655 0.20914218 0.16345458 -0.22492869 0.28024918 -0.06834754 -0.22584903
0.27806836 0.018500807 -0.27032536 -0.04226931 -0.09560508 -0.26238924 -0.041746944 -0.1280127
-0.289997 -0.012870619 -0.20298013 0.18974982 0.19358462 0.18368585 0.16355811 -0.24929012
-0.3498188 0.19112045 0.16710383 0.33712056 0.22792068 0.19036035 -0.21831772 -0.20399606
0.18604137 -0.10520823 -0.16254981 -0.24784695 -0.19237651 0.2821901 -0.03878917 0.21043621
0.1584885 -0.2575094 0.20412432 -0.11569473 -0.08845619 0.2759116 -0.24103624 0.122471966
0.1813285 -0.06768779 -0.1525947 -0.23989761 -0.21802881 0.13584654 0.15980735 0.038773574
0.17297457 0.102305256 0.22891566 0.18944988 0.14476341 0.24338678 0.068185635 0.12343974
0.019384483 -0.1801424 -0.079430595 -0.1908778 -0.1848406 0.22571702 -0.08768155 -0.2879931
-0.20197615 -0.08071627 -0.21668825 0.21410383 -0.08862187 0.28029215 -0.06280062 -0.18994349
-0.14359495 -0.116705395 0.21841042 0.14561972 -0.10675061 -0.22213219 0.1374054 -0.12641598
0.21800074 0.30236113 -0.18024325 -0.097483285 0.058728196 0.33592284 0.1857997 -0.016582299
-0.08737939 0.08056295 0.19392116 0.24834056 0.18745491 -0.10789474 -0.07648141 -0.09262496
0.13121541 0.2461839 -0.07945994 0.104015164 -0.16592412 0.20484269 -0.19850604 -0.02246583
-0.0649213 -0.1495347 -0.04048504 -0.029983358 -0.098978765 0.2032061 0.014112797 0.19437484
0.21431112 -0.21671666 -0.15297277 -0.20631857 0.16552025 0.050845254 0.24594723 -0.20440634
-0.14567254 0.18367226 -0.1287576 0.20639478 0.1820117 0.21423195 0.19965501 -0.092518866
-0.21437545 -0.1513651 0.23569454 0.21310227 -0.19788459 0.3060432 -0.12291998 -0.039012324
-0.08384605 -0.08508418 -0.028934106 0.10857896 -0.12757589 -0.08694292 0.24235752 0.15941754
0.26909307 0.19424708 0.21995535 -0.14020789 0.010817641 -0.3649146 0.28516668 0.18990928
0.21646023 -0.05551137 0.37161306 0.34481618 -0.20042948 -0.07515396 -0.24438694 -0.16551626
-0.26044995 -0.19394855 0.25994322 -0.0045127687 0.17785883 0.34941941 0.082568 -0.05088527
-0.10670479 -0.091406174 0.037170596 0.22081697 -0.19815727 -0.14025387 -0.12289262 -0.3212556
-0.096037015 0.2785095 0.20529105 0.28780892 -0.13627319 -0.14951053 0.18496965 0.020827824
-0.21987054 0.15730439 -0.17636928 0.024796851 0.20974964 -0.03382487 -0.035467245 0.04416664
-0.12745008 -0.28998297 0.015592048 0.04666027 -0.18093927 -0.104113586 0.07092914 -0.22743632

fc2.bias f4 [10]
00000000: f7c3 283e 8647 b03e 80a0 52be 36ce 68be
00000010: 4615 22bd 2d89 4ebe 0073 50bd d24e bdbb
00000020: 1e7b c33e ed9a b3bd
0.16481005 0.34429568 -0.20569038 -0.22734913 -0.03957107 -0.20169516 -0.050890923 -0.0057772184
0.38179868 -0.08769784
